2048_AI/model/model.pth (torch, 286964 bytes, 6 tensors)

linear1.weight f4 [256, 16]
0	0xbd00d87f	-0.031456467
1	0x3db2ccad	0.08730445
2	0x3e0c82ea	0.13721815
3	0xbe050f2a	-0.12994066
4	0xbc65d8aa	-0.0140287075
5	0xbe511eee	-0.20421955
6	0xbe07a0ad	-0.13244887
7	0x3d974900	0.073869705
8	0x3da925f4	0.08259192
9	0xbd6922b5	-0.056917865
10	0xbb9daf87	-0.0048121843
11	0xbea9c8a3	-0.33160886
12	0xbe61b733	-0.22042541
13	0x3e3481b2	0.176276
14	0x3e33c384	0.17555052
15	0xbe46dc99	-0.19420089
16	0xbe5f96aa	-0.21834818
17	0x3d54b2f9	0.051928494
18	0xbe7444bf	-0.2385435
19	0x3c25136a	0.010075429
20	0xbd4aa465	-0.049473185
21	0x3da122a0	0.07867932
22	0xbe58ea53	-0.21183138
23	0xbea89190	-0.32923555
24	0x3d936012	0.07196058
25	0xbe192bb0	-0.14958072
26	0x3e290694	0.16506416
27	0xbe264bf0	-0.16239905
28	0xbe5e2ec8	-0.21697533
29	0x3e841aa1	0.25801566
30	0xbe3c116d	-0.18366022
31	0xbdd69f6d	-0.10479627
32	0xbe011aaa	-0.12607828
33	0x3df5c69a	0.12000771
34	0x3dfa575b	0.12223693
35	0x3d6f768c	0.058462664
36	0x3c99d94b	0.018780371
37	0xbe381ba1	-0.1797929
38	0xbe84bdf0	-0.2592616
39	0xbe88332d	-0.26601544
40	0xbe32eb63	-0.17472605
41	0x3d700065	0.058594126
42	0x3e468661	0.19387199
43	0xbe462271	-0.19349076
44	0x3b780bf3	0.003784892
45	0x3e2fe517	0.17177235
46	0xbe6a0c97	-0.22856365
47	0x3e3426ae	0.1759288
48	0x3dd527da	0.10407992
49	0xbd00cf72	-0.031447835
50	0x3e017dca	0.12645641
51	0x3e22a808	0.15884411
52	0x3d3a817e	0.04553365
53	0xbe775a9b	-0.24155657
54	0xbe3257ee	-0.17416355
55	0xbdeed61e	-0.11661933
56	0xbc870d73	-0.016485905
57	0xbe9a0ac3	-0.30086336
58	0x3ce372c0	0.027764678
59	0x3d884f68	0.066557705
60	0xbcc26398	-0.02372913
61	0x3cc5d286	0.024148237
62	0xbdd615b8	-0.10453361
63	0xbdaa0dc1	-0.083034046
64	0xbd2e1dc4	-0.042508855
65	0xbd1bf1b5	-0.038072307
66	0xbe1df7a6	-0.15426502
67	0xbe171a93	-0.14756231
68	0xbe0fc113	-0.14038496
69	0xbd73593c	-0.059411272
70	0x3e7cc49f	0.2468438
71	0xbdf052d9	-0.11734552
72	0xbdfe102d	-0.12405429
73	0xbc68ad96	-0.014201542
74	0xbe7cbe96	-0.24682078
75	0xbd50776f	-0.05089515
76	0xbde7d77c	-0.11320397
77	0xbe473d73	-0.19457035
78	0x3e2887e8	0.16458094
79	0x3e771d40	0.24132252
80	0x3d88048e	0.06641494
81	0xbded5324	-0.115881234
82	0xbe0a22c6	-0.13489828
83	0xbe0d2311	-0.13782908
84	0x3e299865	0.1656204
85	0xbeb0a5a2	-0.34501368
86	0xbe895798	-0.2682464
87	0x3e6f9f2b	0.23400562
88	0xbd787b11	-0.06066424
89	0x3ab3a7f7	0.0013706674
90	0x3e175dbc	0.1478185
91	0x3dcc9a20	0.099903345
92	0x3e0cde5a	0.13756695
93	0xbe21eb14	-0.15812331
94	0xbe2d82f5	-0.16944487
95	0xbe3bec7e	-0.18351933
96	0x3d21a56b	0.039464395
97	0x3d02bc06	0.031917594
98	0x3d0d8a99	0.034556005
99	0xbe8f3e9e	-0.2797746
100	0x3e16b53c	0.14717573
101	0xbdaf0d46	-0.085474536
102	0x3c1d09b1	0.00958483
103	0xbcbf5d54	-0.023359932
104	0xbdafa5be	-0.08576535
105	0xbeaa61c0	-0.33277702
106	0xbe5be24f	-0.21473049
107	0x3e401939	0.18759622
108	0x3d9bb40f	0.07602703
109	0xbe7326db	-0.23745291
110	0x3db58467	0.08863144
111	0xbebaf573	-0.36515388
112	0xbe3f8c2e	-0.18705818
113	0x3d1c9973	0.038232278
114	0xbe5d323b	-0.21601193
115	0xbd3bc758	-0.045844406
116	0xbe8ff8f7	-0.28119633
117	0x3d8f6ee3	0.07003572
118	0xbe764df4	-0.24053174
119	0xbe77a169	-0.24182667
120	0xbe6547e4	-0.22390705
121	0x3d16c6a3	0.03681053
122	0x3ddb2b4a	0.10701616
123	0xbcb3774e	-0.021907475
124	0xbe162083	-0.1466084
125	0xbc474433	-0.012162256
126	0x3db39e2e	0.08770405
127	0x3d9c787a	0.076401666
128	0xbdde0e5f	-0.10842585
129	0xbddadc86	-0.10686593
130	0xbd0b2800	-0.033973694
131	0x3dc91541	0.09818507
132	0x3df27b66	0.11839943
133	0xbcafd726	-0.021464895
134	0xbea0d26d	-0.31410542
135	0xbea9fcf7	-0.3320081
136	0xbcfb776c	-0.030696593
137	0x3e411668	0.18856204
138	0xbcfff7da	-0.031246115
139	0xbe726801	-0.23672487
140	0xbdff8ada	-0.12477656
141	0x3dfb7a82	0.12279226
142	0x3dc9f57e	0.09861277
143	0x3da192bf	0.07889318
144	0x3d82cc40	0.06386614
145	0xbe662b2d	-0.22477408
146	0xbcde3468	-0.027124599
147	0x3d9f2082	0.07769872
148	0xbe200a08	-0.15628827
149	0x3dfdfde8	0.124019444
150	0x3e0c6055	0.13708623
151	0xbe74ff1a	-0.23925439
152	0x3d8ef1b4	0.06979695
153	0xbe24899a	-0.16068116
154	0xbe400f1e	-0.18755767
155	0x3df05d05	0.11736492
156	0xbdda2f16	-0.10653512
157	0x3dc0c7fd	0.09413145
158	0x3c927b7f	0.017881153
159	0x3deb4186	0.11487107
160	0x3dcc5a31	0.0997814
161	0x3c201c96	0.00977244
162	0xbe06af2d	-0.13152762
163	0xbe526cee	-0.20549366
164	0xbd2f6349	-0.042819295
165	0xbd809a55	-0.062794365
166	0x3e226926	0.15860423
167	0xbdd10a61	-0.10207058
168	0xbe113bb3	-0.1418293
169	0x3e57edbb	0.2108678
170	0xbe18f092	-0.1493552
171	0x3e76226a	0.24036565
172	0x3d9c3998	0.07628173
173	0xbe4ad453	-0.19807558
174	0xbe43c156	-0.1911672
175	0xbc42d173	-0.011890757
176	0xbe88d70f	-0.26726577
177	0x3ad231b7	0.0016036545
178	0xbcf42435	-0.029802421
179	0xbda8bb4b	-0.08238848
180	0xbe921ce2	-0.2853766
181	0x3d621461	0.055195216
182	0x3d2faf45	0.04289176
183	0xbc4da78b	-0.012552152
184	0xbe919b9e	-0.2843904
185	0xbea3985f	-0.31952187
186	0x3d9d1817	0.076706104
187	0xbe6f9fa0	-0.23400736
188	0xbb0b1b01	-0.0021225812
189	0x3e502906	0.20328149
190	0x3de01236	0.109409735
191	0xbe852bd9	-0.26010016
192	0x3e306ce0	0.17229033
193	0xbd639851	-0.055565182
194	0xbe77fcdc	-0.24217552
195	0x3de2884a	0.11061151
196	0x3cde154a	0.02710976
197	0x3bf97e17	0.007613908
198	0xbd9644b3	-0.07337322
199	0xbd0b19e3	-0.033960234
200	0xbdb2f131	-0.0873741
201	0x3dc4d5c2	0.096110836
202	0x3d975cbe	0.07390736
203	0x3d2bd035	0.04194661
204	0x3e0baad0	0.13639379
205	0x3c90a79d	0.01765805
206	0xbe6c9ef7	-0.23107515
207	0xbd782aa6	-0.060587548
208	0xbea03d12	-0.31296593
209	0x3da9943a	0.08280225
210	0xbdc3c4c9	-0.09559018
211	0x3df6a9fe	0.12044142
212	0xbe8e76af	-0.27824923
213	0xbde630f3	-0.11239805
214	0xbd8633d2	-0.06552853
215	0x3d613d37	0.05499002
216	0xbe15d7fa	-0.1463317
217	0xbbacadf5	-0.0052697607
218	0xbe57e96a	-0.21085134
219	0xbdf83007	-0.121185355
220	0x3c9268f4	0.017872311
221	0x3e3df6cb	0.18551175
222	0xbe1f3770	-0.15548491
223	0x3dbf2c82	0.09334661
224	0xbdf16478	-0.11786741
225	0x3d9b06f3	0.07569685
226	0x3cb032be	0.02150857
227	0xbe2e7278	-0.17035854
228	0xbe97e449	-0.29666355
229	0x3c8c7cc2	0.017149333
230	0xbeb346b6	-0.35014886
231	0xbed705c5	-0.4199659
232	0x3da076e2	0.07835175
233	0x3e18dba6	0.14927539
234	0xbdd456b6	-0.10368101
235	0xbdab958c	-0.08378133
236	0xbe07f5f5	-0.13277419
237	0x3dbcce17	0.09218996
238	0x3d9bf277	0.07614606
239	0x3d87d771	0.06632889
240	0xbe2e25b0	-0.17006564
241	0xbe31c573	-0.17360477
242	0xbd45571c	-0.048178777
243	0xbea5927e	-0.32338327
244	0xbe0448b5	-0.1291836
245	0xbc4fc37d	-0.012680885
246	0x3e05d86f	0.13070844
247	0xbebe860f	-0.37211654
248	0x3e229a3d	0.1587915
249	0xbeb7d12e	-0.3590178
250	0x3e239fdf	0.15978955
251	0xbe7644a6	-0.24049625
252	0xbe064118	-0.13110769
253	0xbdab0f96	-0.08352582
254	0xbe3dc4b2	-0.18532065
255	0xbe9f6cc2	-0.31137663

linear1.bias f4 [256]
0	0xbe9edd03	-0.31027994
1	0x3c48570d	0.012227786
2	0x3da9a1d4	0.082828194
3	0xbdf866ea	-0.12129004
4	0xbe899c1c	-0.26876915
5	0xbc2f9ebe	-0.010718999
6	0xbebb503e	-0.36584657
7	0x3d9726b4	0.07380429
8	0x3e365385	0.17805298
9	0x3e2a9808	0.16659558
10	0xbea7a10a	-0.3274005
11	0x3d5413ee	0.05177682
12	0xbe50d505	-0.2039376
13	0x3d879de0	0.06621909
14	0xbd965c4c	-0.07341823
15	0xbd876d90	-0.06612694
16	0x3e33e245	0.17566784
17	0xbe145320	-0.14484835
18	0xbd881bc6	-0.06645922
19	0xbe0baaf0	-0.13639426
20	0xbe0b7b00	-0.1362114
21	0xba9fceca	-0.0012192365
22	0xbd2988bc	-0.041390166
23	0xbcde5c11	-0.02714351
24	0xbe05d5ae	-0.13069794
25	0x3f212369	0.62944657
26	0x3dc4ec87	0.096154265
27	0xbe7ad4fe	-0.24495313
28	0xbe7e1b19	-0.24815024
29	0xbd67db1d	-0.056605447
30	0xbd8164fd	-0.0631809
31	0xbe90fd0f	-0.28318068
32	0x3df4c79f	0.11952137
33	0xbeae7a08	-0.34077477
34	0xbdcb3224	-0.09921673
35	0x3d72d996	0.059289537
36	0xbe5a2dc3	-0.21306519
37	0xbe18ea19	-0.14933051
38	0x3cd13b34	0.025540926
39	0xbeae98b6	-0.34100884
40	0xbe35c47e	-0.17750737
41	0xbda0433a	-0.078253224
42	0xbe008bee	-0.12553379
43	0x3f47c09d	0.7802828
44	0x3d91ef5e	0.07125734
45	0xbe29dc7c	-0.16588014
46	0xbdd2eba5	-0.10298852
47	0x3d0c0290	0.03418213
48	0xbe6367ab	-0.22207515
49	0xbdd3eb84	-0.103476554
50	0xbd1f0bcc	-0.03882961
51	0x3f39130e	0.722947
52	0x3e3163ea	0.1732327
53	0xbeaa7212	-0.33290154
54	0xbe379c78	-0.17930782
55	0xbe817c0d	-0.25289956
56	0xbe807574	-0.2508961
57	0xbe4a5749	-0.19759859
58	0xbebb0792	-0.36529213
59	0xbe11db48	-0.14243805
60	0xbe955067	-0.29162905
61	0xbbf021c3	-0.0073282435
62	0x3f1bf60f	0.6092233
63	0xbe16d133	-0.1472824
64	0x3f330513	0.6992962
65	0xbe0e8404	-0.13917547
66	0xbec1caf1	-0.37850145
67	0x3e14fcc9	0.14549555
68	0xbe4fa69a	-0.20278397
69	0x3da9802b	0.08276399
70	0xbd856b0a	-0.06514557
71	0xbe92a14f	-0.28638694
72	0xbd45d739	-0.048300955
73	0x3e188637	0.14894949
74	0x3e519e41	0.20470525
75	0xbe782103	-0.24231343
76	0x3ebdbac5	0.37056556
77	0xbe986d67	-0.29770967
78	0xbe4371dc	-0.19086403
79	0x3f2e7c90	0.6815882
80	0x3f00518a	0.5012442
81	0x3eb08b22	0.3448115
82	0x3d284eae	0.04109066
83	0xbe19e6f3	-0.15029506
84	0xbea483fb	-0.32131943
85	0x3ec545c1	0.3852978
86	0x3e0fb3b8	0.14033401
87	0xbe134aa7	-0.14383946
88	0xbd6fa38a	-0.058505572
89	0x3df84c85	0.1212397
90	0xbe21acda	-0.15788594
91	0xbe5c7c2a	-0.2153174
92	0xbe63c0bc	-0.22241491
93	0xbd96fdf5	-0.07372657
94	0x3d12f98f	0.03588253
95	0xbd88d3f3	-0.06681051
96	0x3e24864e	0.16066858
97	0xbe0820b4	-0.13293725
98	0x3f26cc54	0.6515553
99	0x3ba9d672	0.0051830346
100	0xbecd806a	-0.40137035
101	0x3eaf7300	0.34267426
102	0xbd957234	-0.07297173
103	0x3ee9a521	0.45633796
104	0x3d6300ce	0.05542069
105	0xbe276497	-0.16346966
106	0xbe357cf9	-0.17723455
107	0xbd817c59	-0.063225456
108	0xbe53f4cc	-0.20698851
109	0x3e2fefc1	0.17181303
110	0x3f257de1	0.646452
111	0x3eafc992	0.34333473
112	0x3eca6b3b	0.39534935
113	0x3ebe8d3c	0.37217128
114	0xbe32bf47	-0.17455779
115	0x3e2456a4	0.16048676
116	0xbbfa4963	-0.007638143
117	0xbe38656d	-0.18007441
118	0xbe139b9e	-0.14414832
119	0xbe8cf6f3	-0.27532157
120	0xbea97f77	-0.3310506
121	0xbdfdcedf	-0.12392973
122	0x3ec5d432	0.38638455
123	0xbe336fa6	-0.17523059
124	0x3f24a29b	0.64310616
125	0xbeb3f27a	-0.35145932
126	0x3d50744a	0.050892152
127	0xbd8ad0e0	-0.06778121
128	0xbe7e4f3a	-0.2483491
129	0xbea04ce8	-0.31308675
130	0xbec76897	-0.38946983
131	0xbc56b42c	-0.01310448
132	0xbe77aa54	-0.24186069
133	0x3d6f1c2d	0.05837648
134	0x3ced32f3	0.028954959
135	0x3eaab68d	0.333424
136	0xbd69f051	-0.05711395
137	0x3f00114d	0.500264
138	0xbe95a15e	-0.29224676
139	0xbcf5092b	-0.029911598
140	0x3d3ef210	0.046617568
141	0x3dd0a7d3	0.1018826
142	0xbea30b4d	-0.3184456
143	0x3e1ab2e9	0.15107311
144	0xbe3339f1	-0.17502572
145	0x3b8698a7	0.004107553
146	0x3d8b668d	0.068066694
147	0x3e8ffafc	0.28121173
148	0x3d92b4de	0.07163404
149	0xbeaa2a79	-0.3323553
150	0x3e0e9341	0.1392336
151	0xbd7dda17	-0.061975565
152	0xbe8a5203	-0.27015695
153	0xbddd0123	-0.107912324
154	0x3c5eecbe	0.013606248
155	0x3cc3bc5c	0.023893528
156	0xbc5b477d	-0.013383743
157	0x3ecedaca	0.40401298
158	0xbea79b68	-0.32735753
159	0xbec90578	-0.39261985
160	0x3dc13485	0.094338454
161	0x3d1e9b7b	0.038722496
162	0x3f1a8879	0.6036449
163	0xbe5ca79d	-0.21548314
164	0xbeb66135	-0.35621038
165	0x3db6666b	0.089062534
166	0xbd3320f5	-0.043732602
167	0xbe749e2d	-0.23888464
168	0x3c32bfad	0.010909957
169	0xbdeb4811	-0.11488355
170	0xbd946dbd	-0.072474934
171	0x3e8d1993	0.27558574
172	0xbe8a879f	-0.27056596
173	0x3e895a16	0.26826543
174	0xbe44ae95	-0.19207223
175	0x3eeeb565	0.46622768
176	0x3ea42307	0.32057974
177	0xbe732b47	-0.23746978
178	0x3b3a03a9	0.002838353
179	0x3df2c639	0.11854214
180	0xbd63130c	-0.055438086
181	0xbe21834e	-0.15772745
182	0xbdd662c7	-0.10468059
183	0x3da65233	0.08121147
184	0xbd396353	-0.04526074
185	0x3daecc76	0.085350916
186	0xbe2f798f	-0.17136215
187	0xbe1ffba4	-0.15623337
188	0xbe010d31	-0.12602688
189	0x3d920ba6	0.07131128
190	0xbdc561c3	-0.09637787
191	0xbdf4b775	-0.11949054
192	0xbe2ef575	-0.17085822
193	0xbee317e4	-0.44354165
194	0xbeb9ef4a	-0.36315376
195	0x3d566950	0.052346528
196	0x3ea7a5e3	0.3274375
197	0xbb860573	-0.004090005
198	0xbe537ac4	-0.206523
199	0x3f08068b	0.53134984
200	0x3c7554a7	0.014973796
201	0x3ce9cbcb	0.028539559
202	0x3d7442ae	0.059633903
203	0x3e4407b2	0.1914356
204	0xbd45247f	-0.04813051
205	0x3e940fd5	0.2891833
206	0xbe57fd87	-0.21092807
207	0xbd09fe0d	-0.033689547
208	0xbeab0653	-0.33403262
209	0xbebe4e43	-0.37169084
210	0xbeac7750	-0.33684778
211	0xbe9a1716	-0.30095738
212	0xbd64cf2c	-0.055861637
213	0xbe8dc65d	-0.27690402
214	0xbc4bc2dd	-0.012436596
215	0x3de0097e	0.109393105
216	0xbde830dd	-0.11337445
217	0xbec09284	-0.37611783
218	0x3cb628c0	0.022236228
219	0x3dbf7d5f	0.093500845
220	0xbe094bae	-0.13407776
221	0x3ddb26a1	0.10700727
222	0x3edcd1c2	0.43128783
223	0xbe2017f1	-0.15634133
224	0xbe075606	-0.13216409
225	0xbe967298	-0.29384303
226	0xbcd47b00	-0.025937557
227	0x3dd5a667	0.10432129
228	0xbe66e99f	-0.22550057
229	0xbdd66e70	-0.10470283
230	0x3e2ff22a	0.17182222
231	0xbd5f192c	-0.054467365
232	0xbd588656	-0.052862488
233	0x3edf5551	0.4361978
234	0x3ea54e0b	0.32286105
235	0xbd9eb969	-0.07750208
236	0xbe9e602f	-0.30932757
237	0xbe29a296	-0.16565928
238	0xbc5f71f4	-0.013638008
239	0x3e629669	0.2212769
240	0xbe82e5e7	-0.25566027
241	0xbd6933b1	-0.056934062
242	0x3ddbeb24	0.10738209
243	0xbde1519c	-0.11001894
244	0x3d0253b5	0.03181811
245	0x3d9304a3	0.07178619
246	0x3d4bac95	0.049725134
247	0x3da7211e	0.081606135
248	0xbbfcdb56	-0.0077165766
249	0xbe48cc7c	-0.19609255
250	0xbdae03c9	-0.08496816
251	0xbe09902e	-0.13433906
252	0xbeb5840b	-0.35452303
253	0x3ef5a268	0.4797547
254	0xbd91153c	-0.07084128
255	0xbe42fd18	-0.1904186

linear2.weight f4 [256, 256]
0	0xbd1f8b76	-0.03895136
1	0xbd41ab66	-0.0472826
2	0xbba47066	-0.0050182818
3	0xbd742724	-0.05960764
4	0x3b64ab60	0.0034892187
5	0xbd39b8e4	-0.04534234
6	0xbd78b294	-0.06071718
7	0xbcc72f41	-0.024314525
8	0xbbbc0361	-0.0057377075
9	0xbd3263dc	-0.043552265
10	0xbd6ee4b0	-0.058323562
11	0xbd39b920	-0.045342565
12	0x3c2f881d	0.010713604
13	0xbd64109e	-0.05567991
14	0x3c7b8a4a	0.015352795
15	0xbd01171a	-0.031516172
16	0xbd54b63e	-0.051931612
17	0xbd8a7d56	-0.06762187
18	0xbd1e4d3e	-0.038647883
19	0x3d2afff9	0.04174802
20	0x3c1b3bef	0.0094747385
21	0xbc170032	-0.009216355
22	0xbba7a000	-0.005115509
23	0x3c6a8476	0.014313808
24	0x3c8c52eb	0.017129382
25	0xbd6e2e6b	-0.058149736
26	0xbd23bb50	-0.039973557
27	0xbd482f68	-0.048873335
28	0x3d1b2b62	0.03788317
29	0xbc40f280	-0.0117765665
30	0xbcd37eb8	-0.02581726
31	0xbd852c69	-0.06502611
32	0x3b2347e9	0.0024914688
33	0xbd224ddb	-0.03962503
34	0x3d14592b	0.03621785
35	0xbd002bb5	-0.031291682
36	0x3cb05a98	0.021527573
37	0xbcd0edde	-0.025504049
38	0xbc48949d	-0.012242463
39	0xbc54fb3a	-0.01299935
40	0x3d472c4a	0.04862622
41	0xbd353206	-0.04423716
42	0xbcfbfcde	-0.030760225
43	0xbc2da498	-0.010598324
44	0xbd8ed5af	-0.06974351
45	0x3b972037	0.0046119946
46	0x3d3eb72e	0.046561413
47	0xbcadf4b8	-0.021234855
48	0xbd59bd56	-0.05315908
49	0xbd9bece2	-0.07613541
50	0x3d00c7ca	0.031440534
51	0xbc5a4f3f	-0.013324558
52	0xbd23fd94	-0.040036753
53	0x3a03c2cb	0.000502628
54	0xbd80ae3a	-0.06283231
55	0xbcb791db	-0.022408416
56	0x3d2f4320	0.042788625
57	0x3b2929c7	0.0025812255
58	0xbd64eedd	-0.05589186
59	0x3d32f5cc	0.04369144
60	0x3c107deb	0.008819084
61	0x3c823b21	0.015897335
62	0x3ca30b2d	0.01990279
63	0x3d58d7e4	0.052940264
64	0xbc962aec	-0.018331014
65	0x3c2b8341	0.010468305
66	0xbd3ac3ae	-0.04559677
67	0xbd44652a	-0.04794804
68	0x3d098b46	0.033580087
69	0x3d26cd96	0.040723406
70	0x3b0dc79a	0.0021633864
71	0xbd7c2d54	-0.061566666
72	0x3cac3183	0.021019703
73	0xbc743df0	-0.014907345
74	0x3cefcadc	0.029271536
75	0x3d6d1194	0.057878092
76	0x3d1f7e2d	0.03893869
77	0xbd58d96a	-0.052941717
78	0xbcae83dd	-0.021303112
79	0xbd8aa397	-0.067694835
80	0xbb733244	-0.0037108818
81	0xbccfece6	-0.025381517
82	0xbc80e023	-0.015731877
83	0x3c2579cf	0.010099842
84	0xba175a3b	-0.0005773638
85	0xbd71c47a	-0.059025265
86	0x3c986a65	0.01860542
87	0xbd8f3c6b	-0.06993946
88	0xbd0ebe3b	-0.034849387
89	0xbc2b9edf	-0.01047489
90	0xbd047e66	-0.032347105
91	0xbd36d3cc	-0.04463558
92	0xba217080	-0.00061584264
93	0xbd62aac4	-0.055338636
94	0xbc83ccec	-0.016088925
95	0xbd8ecbd4	-0.06972471
96	0xbd5f3f2d	-0.05450361
97	0xbd142808	-0.03617099
98	0x3c279f82	0.010230901
99	0xbcbf423c	-0.023347013
100	0xbd7d7531	-0.06187934
101	0x3b83164c	0.0040004607
102	0x3c9c62a9	0.019090014
103	0x3c4635cf	0.01209779
104	0xbd408005	-0.04699709
105	0x3b704180	0.0036660135
106	0xbd772719	-0.06034002
107	0x3c3c00a0	0.011474758
108	0xbd692170	-0.056916654
109	0x3d360842	0.04444147
110	0xbb5a1936	-0.0033279187
111	0x3b869918	0.0041076057
112	0xbd604cc4	-0.05476071
113	0xbc88a645	-0.016680846
114	0xbcfd4146	-0.030914914
115	0x3d04ee9d	0.03245412
116	0xb9618832	-0.00021508409
117	0xbcf9a908	-0.030476108
118	0x3b35afc0	0.0027723163
119	0xbbec1d8d	-0.007205671
120	0xbd47117e	-0.048600666
121	0xbcb74482	-0.022371534
122	0xbd774334	-0.060366824
123	0x3d3ac2ee	0.045596056
124	0xbd435a4c	-0.047693536
125	0x3d072453	0.032993626
126	0x3d243c92	0.040096827
127	0x3c4f487a	0.012651557
128	0xbd16e839	-0.03684256
129	0xbd192238	-0.03738615
130	0xbcb8b5f2	-0.022547696
131	0xbc4876f2	-0.01223539
132	0xba7b892c	-0.00095953303
133	0x3d06502b	0.032791298
134	0x3bb1ba30	0.0054238066
135	0xbcac364d	-0.021021986
136	0xbd11d105	-0.035599727
137	0x3b78903a	0.0037927763
138	0xbd2faf39	-0.042891715
139	0xbc6ef4b8	-0.014584713
140	0xbccc6194	-0.024948873
141	0xbcef3c84	-0.02920366
142	0xbcdd22c9	-0.026994126
143	0xbbce4346	-0.0062946407
144	0xbd7fed35	-0.062482078
145	0x3d54799c	0.05187379
146	0x3d360c51	0.04444534
147	0xbcfd51d2	-0.030922804
148	0xbd26234a	-0.040560998
149	0x3c324063	0.010879609
150	0xbd7113c5	-0.058856744
151	0x3cc5a770	0.024127692
152	0xbd2ebfd6	-0.042663418
153	0xbd20829a	-0.03918705
154	0xbd191824	-0.037376538
155	0xbc2d006e	-0.0105591845
156	0x3d1edc11	0.03878409
157	0x3d009f00	0.031401634
158	0x3c8f0f5d	0.01746338
159	0x3c34fd90	0.011046782
160	0x3cff04b0	0.031130165
161	0xbd3e0029	-0.04638687
162	0x3d1891af	0.03724831
163	0xbd637cb2	-0.05553884
164	0x3d31fadb	0.043452125
165	0xbd894f19	-0.0670454
166	0x3c24d2e8	0.01006005
167	0x3d321342	0.043475397
168	0xbc48d64b	-0.012258123
169	0xbd6d3873	-0.057915162
170	0x3d135ba8	0.035976082
171	0x3a378214	0.0007000279
172	0xbc81ad7c	-0.015829794
173	0xbc13059f	-0.008973508
174	0x3d00220f	0.03128248
175	0xbd100203	-0.03515817
176	0x3cad40ac	0.021149002
177	0x3ccaeba8	0.024770573
178	0xbcd2f038	-0.02574931
179	0x3c664eed	0.014056903
180	0xbd0a1627	-0.033712532
181	0x3d137539	0.036000464
182	0xbcacaf2c	-0.021079622
183	0x3c9653bf	0.01835048
184	0xbd3d415c	-0.04620491
185	0xbb8a6bf6	-0.0042242957
186	0x3d5f6cba	0.05454705
187	0x3d613b0e	0.05498796
188	0x3d265376	0.04060694
189	0x3d4e12e0	0.05031097
190	0x3d495c43	0.049160253
191	0xbd1b9c93	-0.037991118
192	0x3cc260ee	0.02372786
193	0x3d1f55b2	0.038900085
194	0xbab6edd6	-0.0013956379
195	0xbc521883	-0.012823227
196	0xbc4e778e	-0.012601746
197	0xbb466179	-0.00302705
198	0x3d07866c	0.03308718
199	0xbc85ab24	-0.016316958
200	0xbd2fd3e9	-0.042926703
201	0x3c21ca86	0.0098749455
202	0x3d3840f6	0.044983827
203	0x3d4cb36f	0.04997581
204	0xbb52f619	-0.0032190143
205	0xbc127efd	-0.008941409
206	0xbd758efa	-0.059950806
207	0x3d43386e	0.047661237
208	0x3cd0bf22	0.025481764
209	0xbd877fc3	-0.066161655
210	0x3d2c7b98	0.042110056
211	0xbbd621d7	-0.0065347957
212	0xbd5e7268	-0.054308325
213	0xbd2d729e	-0.042345636
214	0x3c9e0820	0.019290984
215	0xbd3e3587	-0.046437766
216	0xbc754da5	-0.014972125
217	0x3c5fbc7c	0.013655778
218	0xba10b915	-0.00055207434
219	0xbc6933d9	-0.014233553
220	0xbd5c605e	-0.05380284
221	0x3d348d30	0.04407996
222	0xbccc21d4	-0.024918474
223	0x3caaf48c	0.020868562
224	0x3ce3d127	0.027809693
225	0xbd5fbb23	-0.054621827
226	0xbd35ffba	-0.044433333
227	0x3d173125	0.036912102
228	0x3d428ee2	0.047499545
229	0xbbcd0440	-0.00625661
230	0xbd2440d2	-0.04010088
231	0xbd586df1	-0.052839223
232	0x3c2589b7	0.010103635
233	0xbd5e2332	-0.054232784
234	0x3ccfa740	0.025348306
235	0xbc16431d	-0.0091712745
236	0x3ba5ff0a	0.0050658034
237	0x3d0f5a10	0.034998
238	0xbca19f90	-0.019729406
239	0xbd901904	-0.07036021
240	0x3d1b126c	0.037859365
241	0xbd2cde50	-0.0422042
242	0xbc2f7416	-0.010708829
243	0x3d1a3c5b	0.037655216
244	0xbb9ca50e	-0.0047804182
245	0xbc96b005	-0.01839448
246	0x3d003f28	0.03131023
247	0xbba4f050	-0.0050335303
248	0xbd7a8a6c	-0.061167166
249	0xbc97c7c0	-0.018527865
250	0xbd3781b2	-0.04480142
251	0xbd0441af	-0.032289203
252	0x39dfba00	0.00042672455
253	0xbd28ca51	-0.04120857
254	0xbce1078c	-0.027469419
255	0xbb9acca0	-0.0047241

linear2.bias f4 [256]
0	0x3c9485f4	0.01813028
1	0x3cac0880	0.021000147
2	0x3a8648b9	0.0010245062
3	0x3d1ef95c	0.038812026
4	0xbc7a18b9	-0.015264683
5	0xbd4198d4	-0.04726489
6	0xbd725c5c	-0.059170112
7	0xbd1a09c9	-0.037606988
8	0xbd046eb6	-0.032332145
9	0xbd43befe	-0.047789566
10	0xbd7d59d7	-0.061853256
11	0x3cd615f9	0.026133524
12	0xbd0f915b	-0.03505073
13	0xbc060475	-0.008179774
14	0xbd737131	-0.05943412
15	0xbca9db35	-0.020734409
16	0xbd9cf063	-0.07663038
17	0xba24d034	-0.0006287128
18	0xbde8a132	-0.113588706
19	0xbd888d2f	-0.06667554
20	0x3d81cf01	0.06338311
21	0xbd39b8b3	-0.04534216
22	0x3cd89313	0.026437318
23	0xbd7405c4	-0.05957581
24	0x3d30a1c5	0.043123025
25	0x3c8002ea	0.01562639
26	0xbcd86e4c	-0.026419781
27	0xbdb2e463	-0.087349676
28	0x3ccbac63	0.024862474
29	0x3cb22bde	0.021749433
30	0xbdb7d2a6	-0.08975725
31	0xbd3e5af6	-0.046473466
32	0xbd65c5cb	-0.056096833
33	0x3d18b5be	0.037282698
34	0xbc942543	-0.018084174
35	0xbba8826a	-0.0051424997
36	0x3cf35246	0.029702317
37	0xbd8a34f9	-0.06748385
38	0xbcb0362e	-0.02151021
39	0x3d3d0798	0.04614982
40	0x38cb9dcb	9.7091855e-05
41	0xbd389660	-0.045065284
42	0x3d237a43	0.03991152
43	0x3d0f753e	0.03502392
44	0xbd9085b0	-0.07056749
45	0xbaefa53e	-0.0018283499
46	0xbd9d5653	-0.07682481
47	0xbd1a5a25	-0.037683625
48	0xbcd1d380	-0.025613546
49	0x39396153	0.00017679231
50	0xbd8f5a7f	-0.06999683
51	0xbd222991	-0.039590422
52	0x3c416652	0.01180418
53	0x3c57473c	0.013139542
54	0xbd99ec0a	-0.07515724
55	0xbd8038d2	-0.062608376
56	0x3d1efd3b	0.03881572
57	0xbd464087	-0.04840138
58	0xbc463d10	-0.012099519
59	0xbcf7259d	-0.030169303
60	0xbda9c684	-0.08289817
61	0xbd58b844	-0.052910104
62	0xbd09044e	-0.03345137
63	0xbd142126	-0.036164425
64	0xbd5485e2	-0.051885493
65	0xbbb59b99	-0.0055422303
66	0xbd9c7ad5	-0.07640616
67	0xbc91f79b	-0.017818263
68	0xbca6508c	-0.02030208
69	0x3ca599fc	0.020215027
70	0xbc3c5140	-0.011493981
71	0xbd180542	-0.03711439
72	0xbdbbb4ca	-0.09165342
73	0x3f0d5a2a	0.55215704
74	0x3c051ae2	0.008124085
75	0x3d2bbb42	0.04192663
76	0x3abced6d	0.001441402
77	0x3c15edfd	0.009150979
78	0xbdbb94a2	-0.09159209
79	0x3ce72b71	0.028218957
80	0xbc124f27	-0.008930004
81	0xbd8230a4	-0.06356934
82	0xbd49b150	-0.049241364
83	0x3af2b15f	0.0018515995
84	0xbd4df5ef	-0.05028337
85	0xbc8ff736	-0.017573934
86	0xbd929eac	-0.071591705
87	0x3b9e6cb8	0.0048347376
88	0xbd6195cb	-0.055074494
89	0x3cfa8127	0.030579163
90	0x3d228c59	0.039684627
91	0xbd0da41e	-0.034580342
92	0x3d52babb	0.05144761
93	0xbc781d3f	-0.015143692
94	0x3c971ac8	0.018445387
95	0xbdb231ff	-0.08700942
96	0xbda16394	-0.07880321
97	0x3cf57a43	0.029965525
98	0x3d2e10dd	0.04249655
99	0xbda17f7f	-0.07885646
100	0xbd064128	-0.03277698
101	0x3cef2b89	0.029195564
102	0xbd4cdee8	-0.050017267
103	0x3cf77e58	0.030211613
104	0x3cd20afe	0.025640007
105	0xbd3c61fd	-0.045991886
106	0x3cf1a833	0.029499149
107	0xbd5979c6	-0.053094648
108	0xbcf1b558	-0.029505417
109	0xbdbfa661	-0.09357906
110	0xbe05127d	-0.12995334
111	0xbd647023	-0.055771004
112	0x3eeab24f	0.45839164
113	0x3dcccf34	0.10000458
114	0xbc0a6453	-0.008446771
115	0xbd9fdfd5	-0.078063644
116	0xbd39df18	-0.045378774
117	0x3d0e5ac3	0.034754526
118	0xbc3dc136	-0.01158171
119	0xbd9e7d1a	-0.07738705
120	0x3d35a595	0.044347364
121	0x3d4e78e2	0.05040825
122	0x3ae28af0	0.0017283838
123	0x3d6607b8	0.056159705
124	0xbc83343c	-0.016016118
125	0xbd0fe85a	-0.035133697
126	0x3ca3e2df	0.020005642
127	0x3b42abe9	0.0029704517
128	0xbc9ac6e8	-0.018893674
129	0x3d42dceb	0.047573965
130	0xbd22e0e7	-0.039765265
131	0xbc74f8be	-0.014951883
132	0x3d3cb3de	0.046069972
133	0xbc9b5d29	-0.01896532
134	0x3b446367	0.0029966475
135	0xbc99685c	-0.01872652
136	0xbd6d61ef	-0.057954725
137	0xbcda8efd	-0.02667951
138	0xbd8fae63	-0.070156835
139	0x3d0b04a0	0.033939958
140	0xbd80f5f4	-0.06296912
141	0x3ce7b51c	0.028284602
142	0x3cd96075	0.026535252
143	0xbd4f8f8d	-0.05067401
144	0xbd93a9cf	-0.07210123
145	0xbd8c3e07	-0.06847768
146	0x3b48c1cf	0.0030633097
147	0xbc8df819	-0.017330216
148	0x3c8ff03b	0.017570606
149	0xbd649933	-0.055810165
150	0x3ced5b95	0.028974334
151	0xbd7287e3	-0.059211623
152	0x3ca81978	0.020519957
153	0x3d077208	0.033067733
154	0xbd98e096	-0.07464711
155	0x3c13f43d	0.009030399
156	0xbd5cdb8f	-0.053920325
157	0xbba9d34e	-0.00518266
158	0x3ba3c6ee	0.0049980795
159	0xbd10207e	-0.035187237
160	0xbc9a204e	-0.018814232
161	0x3d87d777	0.066328935
162	0xbd96a715	-0.07356087
163	0xbd2c3307	-0.04204085
164	0x3c7ae437	0.0153132
165	0xbca9c8a6	-0.02072556
166	0xbd9062b2	-0.07050075
167	0xbd49b789	-0.0492473
168	0xbd381736	-0.04494401
169	0xbd906ed1	-0.070523866
170	0xbc0e7c3f	-0.008696615
171	0x3cdffa94	0.027341165
172	0xbcd2ee1f	-0.02574831
173	0xbcf49875	-0.029857853
174	0x3d215c73	0.039394807
175	0x3d23de72	0.040007062
176	0xbd2ce360	-0.04220903
177	0x3cb7c070	0.022430629
178	0x3d0b546d	0.03401606
179	0xbd823967	-0.06358605
180	0xbd020106	-0.031739257
181	0x3c6b0212	0.014343755
182	0x3c395f1b	0.011314179
183	0x3cc374ac	0.023859344
184	0xbcfdd381	-0.030984642
185	0x3c1638df	0.009168833
186	0x3cb0e52e	0.021593656
187	0x3d9b74c0	0.07590628
188	0x3cdd18b9	0.026989328
189	0xbd671dd9	-0.05642495
190	0xbd0de7a7	-0.03464475
191	0xbd35a6ff	-0.044348713
192	0xbd907664	-0.07053831
193	0xbd571064	-0.052505866
194	0xbd97b3b0	-0.074073195
195	0xbcf748d2	-0.03018609
196	0xbc472ddc	-0.01215693
197	0x3d3562e2	0.044283755
198	0x3cf80708	0.03027679
199	0xbd3cb732	-0.046073146
200	0xbcf756f7	-0.030192835
201	0xbd17e1e8	-0.037080675
202	0xbb548780	-0.0032429397
203	0x3cc6eafe	0.024281975
204	0xbd8cd499	-0.06876487
205	0xb997ea83	-0.0002897569
206	0xbdaad16d	-0.08340726
207	0xbd77b0f5	-0.060471494
208	0xbb90b79b	-0.0044164187
209	0xbd1b3f2e	-0.03790205
210	0xbcf9662d	-0.030444229
211	0x3c692753	0.014230567
212	0xbd6f758e	-0.05846172
213	0xbd7dc17a	-0.06195209
214	0xbc4d6dae	-0.012538357
215	0xbc7dc7e0	-0.015489548
216	0x3ede4f07	0.43419668
217	0xbcb765b9	-0.022387372
218	0xbd609396	-0.05482825
219	0xbd4b1c80	-0.049587727
220	0xbd4df970	-0.05028671
221	0xbbc47e31	-0.0059964885
222	0xbd05451c	-0.03253661
223	0x3d048ee5	0.032362837
224	0xbc6ab8f3	-0.014326322
225	0x3c81fb9d	0.015867049
226	0xbdad9414	-0.08475509
227	0xbd9585c0	-0.073009014
228	0x3d0f0154	0.034913376
229	0xbd104242	-0.03521944
230	0xbd611da2	-0.0549599
231	0xbd103270	-0.03520435
232	0xbcf6634a	-0.030076642
233	0xbd96f561	-0.07371021
234	0xbd4ebc4a	-0.050472535
235	0x3a176626	0.0005775414
236	0x3c392df8	0.011302464
237	0xbd4efce4	-0.050534144
238	0x3cce9877	0.025219185
239	0xbd4fc42f	-0.050724205
240	0xbd98bb1a	-0.07457562
241	0x3d0d4853	0.034492802
242	0xbd85c09b	-0.06530877
243	0xbd334e5e	-0.04377591
244	0xbc8f54e0	-0.017496526
245	0x3d42fd14	0.047604635
246	0xbc229fc8	-0.00992579
247	0xbcc522c0	-0.024064422
248	0xbd9244a3	-0.07141998
249	0xbacc63f8	-0.0015593758
250	0x3c0d4eb4	0.008624721
251	0xbd027f04	-0.031859413
252	0xbc38bc89	-0.011275419
253	0xbd9d2cdc	-0.07674572
254	0x3c641dea	0.013923148
255	0xbd9cc6db	-0.07655116

linear3.weight f4 [4, 256]
0	0xbc992bb4	-0.018697597
1	0x3d66fb31	0.0563919
2	0xbc695838	-0.014242224
3	0xbcaaf4c8	-0.020868674
4	0xbc1f2d07	-0.009715325
5	0x3d4fde82	0.05074931
6	0xbbf4f88d	-0.0074759186
7	0x3bfc824c	0.0077059623
8	0x3d0e92c4	0.034807935
9	0xbd06c80b	-0.03290562
10	0x3d7a61aa	0.061128296
11	0x3d15a2a3	0.036532056
12	0xbd33bbe5	-0.043880362
13	0x3d41f1d9	0.047349785
14	0x3cb40e25	0.0219794
15	0x3c32c5ee	0.010911448
16	0x3c1d6304	0.009606127
17	0xbca46c57	-0.020071192
18	0xbcb97417	-0.022638364
19	0xbc8a5950	-0.01688829
20	0x3c660a50	0.014040545
21	0x3d32a21a	0.043611623
22	0x3bcad67c	0.0061901193
23	0x3d766026	0.060150288
24	0x3d16e39a	0.03683815
25	0xbd4f8e54	-0.050672844
26	0xbd5a2010	-0.053253233
27	0xbb15237d	-0.0022756748
28	0x3d446ea8	0.047957093
29	0xbcd25b0a	-0.025678176
30	0xbb57f0d5	-0.0032949944
31	0x3c927639	0.017878639
32	0xbd2d402d	-0.04229753
33	0xbcba3001	-0.022727968
34	0x3c841d3c	0.016127221
35	0x3bd161ed	0.0063898475
36	0x3cb05861	0.021526517
37	0x3d6305d8	0.055425495
38	0xb8f5fc20	-0.00011729472
39	0xbccba6ae	-0.024859753
40	0xbd241bb2	-0.040065475
41	0x3d7b1b5e	0.061305396
42	0x3d001310	0.03126818
43	0xbc0b8312	-0.008515136
44	0x3d265f25	0.04061808
45	0xbc40617c	-0.011741992
46	0xbd35982d	-0.04433458
47	0x3c82c08e	0.015960958
48	0x3b00ec06	0.001967193
49	0x3c1b811b	0.00949123
50	0xbd5b4d6c	-0.053540632
51	0x3d24e5fe	0.0402584
52	0x3d0f96a6	0.03505578
53	0xbb5bc121	-0.0033531862
54	0x3c120c12	0.008914011
55	0x3aa028e5	0.0012219219
56	0xbc8379d0	-0.016049296
57	0x3d4597ce	0.048240475
58	0x3cf46a27	0.029835774
59	0xbd6cc16d	-0.057801653
60	0xbcad39cb	-0.021145722
61	0xbcd6f623	-0.026240414
62	0xbc38bef7	-0.011275998
63	0xbca34310	-0.019929439
64	0xbcee5db7	-0.029097421
65	0x3d864846	0.06556754
66	0x3d11d5be	0.03560423
67	0x3c977656	0.018489044
68	0x38213013	3.8430164e-05
69	0xbc9d74e3	-0.019220775
70	0xbd224c28	-0.03962341
71	0xbc620332	-0.013794707
72	0x3c74efa0	0.014949709
73	0x3e1a5a11	0.1507342
74	0x3c4a5987	0.012350447
75	0x3c0a2de7	0.0084337955
76	0x3c2b8df5	0.010470857
77	0xbceb7bc3	-0.028745538
78	0xbc8ea369	-0.017411904
79	0x3bd8d9f8	0.006617781
80	0xbd1f745d	-0.038929332
81	0x3ca3de63	0.020003503
82	0xbd30a80a	-0.043129005
83	0xbd2489f6	-0.040170632
84	0xb9893742	-0.00026171847
85	0x3d21fd82	0.039548405
86	0x3c19cc69	0.009387114
87	0xbbcf4e9d	-0.00632651
88	0xbd620c7e	-0.055187695
89	0xbd420f3e	-0.047377817
90	0xbca04b30	-0.019567102
91	0x3c0e33be	0.0086793285
92	0x3c87b7a1	0.016567053
93	0xbb49c95f	-0.0030790193
94	0xbc09a40a	-0.008400926
95	0xbc3199be	-0.010839878
96	0x3bdee6c8	0.0068024136
97	0xbb877333	-0.004133606
98	0xbbf75363	-0.0075477823
99	0x3cdf6145	0.027268061
100	0x3bad2290	0.005283661
101	0x3c90f2b5	0.017693857
102	0x3b913d34	0.004432345
103	0x3d03ea03	0.032205593
104	0xbc8584a5	-0.016298601
105	0xbc7e7df3	-0.015532958
106	0x3bb53df5	0.0055310675
107	0x3ade7628	0.0016972469
108	0xbcbe9b8e	-0.023267534
109	0x3c14c6e7	0.009080625
110	0xbcc342d4	-0.023835577
111	0xbd04215f	-0.032258388
112	0x3e126575	0.14296515
113	0x3d6fe6db	0.05856977
114	0xbc76d915	-0.015066405
115	0x3c3ccafc	0.011523005
116	0x3d4fb758	0.05071196
117	0xbd03a784	-0.032142177
118	0x3c8ace07	0.016943945
119	0xbafee415	-0.0019446636
120	0xbbef6cc3	-0.0073066666
121	0x3d51a1a1	0.051179532
122	0x3c825a34	0.015912153
123	0x3d7879a5	0.060662884
124	0xb98ff4de	-0.00027457526
125	0xbc43eff5	-0.011959066
126	0x3d5cf9fc	0.05394934
127	0x3c546885	0.0129643725
128	0x3b8e0278	0.0043337904
129	0xbdc07e3b	-0.093990766
130	0x39627fbe	0.00021600627
131	0xbb914aa2	-0.0044339458
132	0x3c5a5210	0.013325229
133	0x3cfa9da6	0.03059275
134	0x3d2d5d32	0.042325206
135	0xbc8f857d	-0.017519707
136	0x3d85a435	0.06525461
137	0xbd21ffe1	-0.039550666
138	0xbc920923	-0.017826622
139	0xbca41a24	-0.020031996
140	0xbcb06435	-0.021532157
141	0xbc4bf236	-0.012447884
142	0x3b79af4d	0.0038098872
143	0x3c0c9639	0.008580738
144	0x3b6c887b	0.003609209
145	0xbc32b644	-0.010907713
146	0x3d6ea660	0.058264136
147	0xbd238b56	-0.039927803
148	0xba3c133a	-0.0007174496
149	0xbd229c8a	-0.03970007
150	0x3ba984cb	0.005173301
151	0x3c10cc73	0.008837807
152	0x3d3feddb	0.046857696
153	0xbbdd3758	-0.0067509823
154	0x3d46a278	0.048494786
155	0xbd191f26	-0.03738322
156	0x3be5d3e7	0.007013786
157	0x3d016516	0.031590544
158	0xbc73b632	-0.014874982
159	0xbcc16455	-0.023607412
160	0x3d361055	0.04444917
161	0x3d305273	0.04304738
162	0x3b133a1f	0.0022465063
163	0x3d1a22e3	0.037630927
164	0x3d0d7e27	0.034544136
165	0xbca2b523	-0.019861763
166	0x3ba83f91	0.005134531
167	0x3d82794b	0.06370791
168	0x3b6be208	0.003599288
169	0xbbb11111	-0.005403646
170	0x3d15062b	0.036382835
171	0xbcecea8d	-0.028920436
172	0xbd2f36a5	-0.042776722
173	0xbaa31d0b	-0.0012444569
174	0xbcd8caec	-0.026463948
175	0x3c84df7d	0.016219849
176	0xbd088fef	-0.03334039
177	0xbd054627	-0.032537606
178	0x39e7a408	0.00044181966
179	0xbc89f68c	-0.016841196
180	0x3cea7754	0.028621353
181	0x3be36340	0.0069393218
182	0xbcd22f2f	-0.025657265
183	0xbd46439c	-0.04840432
184	0xb8cae6de	-9.675113e-05
185	0xbc9a09f4	-0.018803574
186	0xbcadfe75	-0.021239499
187	0x3c35e1ea	0.011101225
188	0x3d283fb1	0.041076366
189	0x3bfcc301	0.007713676
190	0xbca32122	-0.01991326
191	0x3b9ebbc3	0.0048441603
192	0xbcde41ea	-0.02713104
193	0x3ad06ecb	0.001590216
194	0x3c3d0eba	0.011539156
195	0xbc48bbb1	-0.01225178
196	0x3bf1e3e9	0.0073819053
197	0x3d4d6989	0.050149474
198	0xbd3bae5f	-0.04582059
199	0x3c2bf0f7	0.010494462
200	0x3d5e3ae4	0.05425538
201	0xbd0b05d5	-0.03394111
202	0x3c8cbda3	0.01718027
203	0xbd443c76	-0.047909223
204	0x3bc97c2f	0.006148837
205	0x3b456494	0.0030119764
206	0xbca3ddc9	-0.020003216
207	0xbd6c2774	-0.057654813
208	0xbc18203f	-0.009285032
209	0x3d07f089	0.033188377
210	0xbd4d0e4b	-0.05006246
211	0x3b9fcc86	0.004876676
212	0x3d20f975	0.0393004
213	0xbd373906	-0.044732116
214	0x3d1c442c	0.03815095
215	0x3d236092	0.03988702
216	0x3e056a2d	0.13028784
217	0xbcc5eabc	-0.024159782
218	0x3cc0d767	0.023540212
219	0x3b9f7f4c	0.00486747
220	0x3d493136	0.049119197
221	0x3c1cf658	0.009580217
222	0xbcd3d939	-0.025860416
223	0x3bfa3da6	0.0076367436
224	0x3ceaa3f5	0.028642634
225	0xbb63de80	-0.0034770072
226	0x3c8fe9e1	0.017567577
227	0xbd679215	-0.0565358
228	0xbbc24dda	-0.005929691
229	0xbd38be9c	-0.045103654
230	0x3d2df96a	0.042474188
231	0xbc05fc65	-0.008177851
232	0x3c4d8e88	0.012546189
233	0x3d09dc3b	0.033657294
234	0x3c0929bf	0.008371769
235	0xbccbf9f1	-0.024899455
236	0xbbfe9cdc	-0.007770164
237	0xbc5ba2d0	-0.013405517
238	0xbc8af4f4	-0.016962506
239	0x3bff1cdf	0.007785424
240	0xbc54c1c9	-0.012985655
241	0xbd165d83	-0.036710273
242	0x3d80285f	0.062577
243	0x3cdbc9f3	0.026829695
244	0xbcad7801	-0.021175386
245	0x3d5cf3c9	0.05394343
246	0xbbdfd9ac	-0.0068313684
247	0x3cf84c76	0.030309897
248	0xbcbec89c	-0.023289017
249	0x3ced92ff	0.029000757
250	0x3c8c573c	0.01713144
251	0xbb43a2a7	-0.0029851587
252	0xbc7ad00d	-0.015308392
253	0x3d5ea2d5	0.054354507
254	0x3d36f8f3	0.04467101
255	0x3c8fe704	0.017566212

linear3.bias f4 [4]
0	0x3dd09403	0.10184481
1	0x3def66da	0.11689539
2	0x3dd53dc4	0.104121715
3	0x3deb0b35	0.11476747
