2048_AI/model/model.pth (torch, 287028 bytes, 6 tensors)

linear1.weight f4 [256, 16]
0	0x3d14fc81	0.03637362
1	0xbe72a5ca	-0.23696056
2	0xbe96d646	-0.29460353
3	0xbef5289e	-0.4788255
4	0xbeae7175	-0.34070936
5	0x3d4a64df	0.049412604
6	0xbe8bd2cd	-0.27309266
7	0xbc995afa	-0.018720139
8	0xbd66cc25	-0.05634703
9	0xbe1e89dc	-0.15482277
10	0x3c8ec799	0.01742916
11	0xbef580ef	-0.4794993
12	0xbeb0367e	-0.34416574
13	0xbd9bd315	-0.0760862
14	0x3e034427	0.12818967
15	0xbd91dd68	-0.07122308
16	0x3ec443f6	0.383331
17	0x3d0b95fe	0.03407859
18	0x3e4a2b96	0.19743189
19	0x3e0bdd2b	0.13658588
20	0x3cba99e0	0.022778451
21	0x3e2cf63c	0.16890806
22	0x3e862e1e	0.2620706
23	0x3e76e3ba	0.24110308
24	0x3d422364	0.047397032
25	0x3e600075	0.21875174
26	0x3e72b05a	0.23700085
27	0x3e3d7bb4	0.1850422
28	0x3e3f5631	0.18685223
29	0x3e38ce47	0.18047439
30	0x3d269d27	0.040677216
31	0x3d58072f	0.052741226
32	0xbea279bd	-0.31733504
33	0xbcb2a0a9	-0.021805124
34	0xbde829ea	-0.113361195
35	0xbe5b73d1	-0.21430899
36	0xbe519a94	-0.20469123
37	0x3e176329	0.1478392
38	0x3df659ff	0.12028884
39	0x3dabbba3	0.08385398
40	0x3db2b1d3	0.087253235
41	0xbe951738	-0.29119277
42	0x3d844faf	0.06460511
43	0xbe7a0122	-0.24414495
44	0xbe360698	-0.17775953
45	0xbe3634fb	-0.17793648
46	0x3cd0df44	0.025497086
47	0x3e462263	0.19349055
48	0xbecf42b7	-0.40480587
49	0x3d8e5910	0.06950581
50	0xbdf2e6b9	-0.11860413
51	0xbecfaa6e	-0.40559715
52	0xbe837e42	-0.25682265
53	0xbeaec91f	-0.34137818
54	0xbd47f4d2	-0.048817463
55	0x3ca78a46	0.020451676
56	0xbed2e5f9	-0.4119108
57	0x3d0d4d6b	0.03449766
58	0xbea93fb0	-0.33056402
59	0xbdd6e087	-0.10492044
60	0xbd8b2e2e	-0.067959175
61	0xbdee9f02	-0.11651422
62	0xbe6e973f	-0.23299883
63	0x3d473bce	0.04864102
64	0xbec0add5	-0.37632623
65	0xbc997511	-0.01873258
66	0x3d5339a4	0.051568642
67	0xbed97713	-0.4247366
68	0xbe01fbd7	-0.12693726
69	0xbe089c4d	-0.13340874
70	0xbe15fb16	-0.14646563
71	0x3dc716de	0.097211584
72	0x3c14249b	0.009041931
73	0xbeb4936a	-0.35268718
74	0xbeb5ac3f	-0.35482976
75	0xbeb2048f	-0.34769103
76	0xbe285da7	-0.16441976
77	0xbdb93129	-0.0904258
78	0xbe9386bc	-0.28813732
79	0x3de394c5	0.1111236
80	0x3dff3e94	0.12463108
81	0xbc809eeb	-0.015700778
82	0xbeb62810	-0.3557744
83	0xbebe48bc	-0.37164867
84	0x3d2d9437	0.042377677
85	0x3db47069	0.08810503
86	0xbe96836d	-0.29397145
87	0xbddfded6	-0.109311745
88	0xbc8d9fce	-0.017288115
89	0xbdde83f9	-0.108650155
90	0x3e00de1d	0.1258473
91	0xbe1cd391	-0.15315081
92	0x3c369f88	0.011146434
93	0x3e224db5	0.15849955
94	0xbdb384c3	-0.08765557
95	0xbe22022f	-0.15821145
96	0xbe950dd8	-0.29112124
97	0xbebefaff	-0.3730087
98	0xbd32f64c	-0.04369192
99	0xbeba7080	-0.36413956
100	0x3d907ebc	0.07055423
101	0xbec44cc4	-0.38339818
102	0xbe41d3d8	-0.18928468
103	0xbd7535fb	-0.059865933
104	0xbe985d51	-0.29758695
105	0xbebec091	-0.37256292
106	0x3d765e25	0.060148377
107	0x3dd1e102	0.10247995
108	0x3bf6ab71	0.0075277616
109	0x3d1639f5	0.036676366
110	0xbeb9593a	-0.36200887
111	0xbdb7a428	-0.08966857
112	0xbe433b61	-0.1906562
113	0xbe129687	-0.14315234
114	0x3db3afd5	0.08773772
115	0x3e013d09	0.1262094
116	0xbe828987	-0.2549555
117	0xbe884a21	-0.26619056
118	0xbe7a6ead	-0.24456282
119	0xbe279789	-0.163664
120	0xbe711e28	-0.2354666
121	0xbe92993a	-0.28632528
122	0x3d00dc07	0.031459834
123	0xbe94b95b	-0.29047665
124	0xbe7da2a4	-0.24769074
125	0x3c8dddd4	0.01731769
126	0x3e0f7b52	0.14011887
127	0xbd32d288	-0.04365781
128	0x3e4b001e	0.19824263
129	0x3e0fbe2d	0.1403739
130	0x3ccdbfb2	0.025115822
131	0x3e98060d	0.29692116
132	0x3d4b9981	0.04970694
133	0x3e15e2b5	0.14637263
134	0x3dd87b19	0.10570354
135	0x3e2539bc	0.16135305
136	0x3e93a266	0.28834838
137	0x3de6dcb2	0.11272563
138	0x3de135ad	0.10996566
139	0x3e5ef0f3	0.21771602
140	0x3e3d31be	0.18476006
141	0x3c73a805	0.014871602
142	0x3e622150	0.2208302
143	0x3e472f7e	0.1945171
144	0xbefb521c	-0.49086082
145	0x3d16702d	0.036728073
146	0xbe9aa1ae	-0.30201477
147	0xbe435d55	-0.19078572
148	0xbdf7340c	-0.12070474
149	0xbe344c65	-0.17607267
150	0xbd887df8	-0.06664652
151	0xbd807688	-0.06272608
152	0x3d662173	0.056184243
153	0xbea21312	-0.31655174
154	0xbc320699	-0.010865831
155	0xbe962b34	-0.29329836
156	0x3d95c0ea	0.07312186
157	0xbe4c7703	-0.19967274
158	0xbe14ef23	-0.14544348
159	0xbe2040ce	-0.15649721
160	0xbe818a54	-0.25300848
161	0xbeaeb658	-0.34123492
162	0xbe0a8227	-0.13526212
163	0xbe29fecb	-0.16601102
164	0xbeee8fd7	-0.46594116
165	0x3d63a26f	0.05557483
166	0xbe43dc2c	-0.19126958
167	0x3c14a5f6	0.009072771
168	0xbe97d88f	-0.2965741
169	0xbec6c8be	-0.3882503
170	0x3ca96eb0	0.020682663
171	0xbe97ebcc	-0.29672086
172	0xbc0629d3	-0.008188683
173	0xbe36c845	-0.17849834
174	0xbebc0e8c	-0.36729848
175	0x3c2e4a38	0.010637812
176	0xbc045d8a	-0.008078942
177	0xbd9fa1ab	-0.077945076
178	0xbe7cf0b5	-0.24701197
179	0xbdffccb1	-0.12490214
180	0xbe724523	-0.23659186
181	0xbe6fa9ea	-0.23404661
182	0x3d0ff43b	0.035145026
183	0xbe939034	-0.28820956
184	0xbe958f27	-0.2921078
185	0xbe339803	-0.17538457
186	0xbe0904ce	-0.13380739
187	0xbe9a09d0	-0.3008561
188	0xbdb56c6e	-0.08858572
189	0xbdceaa82	-0.100911155
190	0xbce052fd	-0.027383322
191	0xbc996c9e	-0.01872855
192	0xbd8b6504	-0.068063766
193	0x3d1d5367	0.038409617
194	0xbe219c13	-0.15782194
195	0xbc8bba9c	-0.017056756
196	0xbd5e1159	-0.054215763
197	0xbc2542cd	-0.010086727
198	0xbdbf8c81	-0.09352971
199	0x3d161681	0.036642555
200	0xbecf34ab	-0.4046987
201	0xbe9b09a5	-0.30280796
202	0x3d499c99	0.04922161
203	0xbccaadf4	-0.02474115
204	0xbeb4ad25	-0.3528835
205	0x3c604d6b	0.013690333
206	0x3d179992	0.03701169
207	0xbcf689fa	-0.03009509
208	0xbdfc4316	-0.12317483
209	0xbe40628e	-0.18787596
210	0xbdb0a748	-0.08625656
211	0xbe95c16a	-0.29249126
212	0xbeacbf72	-0.3373981
213	0xbd8eb980	-0.06968975
214	0xbc492fe6	-0.012279486
215	0xbecd13de	-0.4005422
216	0x3c85a93c	0.016316049
217	0xbcd58e4b	-0.026068827
218	0xbed97b7b	-0.4247702
219	0xbe0df76f	-0.1386392
220	0xbe901fd0	-0.2814927
221	0xbd1703ac	-0.036868736
222	0x3d4182e6	0.047243975
223	0xbe03ce9d	-0.12871785
224	0x3c111da7	0.008857167
225	0x3bfb16d7	0.007662635
226	0xbe11b6bd	-0.14229865
227	0xbd9682b8	-0.073491514
228	0xbda448ff	-0.080217354
229	0xbd6c4694	-0.057684496
230	0xbda9228e	-0.08258544
231	0x3db110be	0.086457714
232	0xbde269e7	-0.110553555
233	0x3d6be9c7	0.057595994
234	0x3cb578c1	0.022152307
235	0xbe03ec2d	-0.12883063
236	0xbc0cd1e6	-0.008594966
237	0x3d459912	0.048241682
238	0xbdfb8a7e	-0.12282275
239	0x3d951895	0.07280079
240	0xbec3190e	-0.38105053
241	0xbe1057fb	-0.14096062
242	0xbe7fbf58	-0.24975336
243	0xbeb0b131	-0.34510186
244	0xbd2a04d0	-0.041508496
245	0xbd92cd52	-0.07168068
246	0xbe767999	-0.24069823
247	0xbd7caeaf	-0.06169003
248	0xbdd019f0	-0.10161197
249	0xbd5fe5ab	-0.054662388
250	0xbdd69e07	-0.1047936
251	0x3e0ee485	0.13954361
252	0x3c80da33	0.015729045
253	0x3d78c04f	0.060730275
254	0xbde2483c	-0.11048934
255	0x3e1af578	0.15132701

linear1.bias f4 [256]
0	0xbede8e18	-0.43467784
1	0x3f582852	0.84436524
2	0xbea9270c	-0.33037603
3	0xbd4b57e4	-0.049644366
4	0xbe7fffb7	-0.24999891
5	0xbebf43df	-0.3735647
6	0xbeb2730e	-0.34853405
7	0xbeb28c72	-0.34872776
8	0x3f197167	0.59938663
9	0xbf0af702	-0.54283154
10	0xbd3a0aa8	-0.04542032
11	0xbe085261	-0.13312675
12	0xbe468bdf	-0.19389294
13	0xbef1129b	-0.47084507
14	0xbdaed232	-0.08536185
15	0xbea4a979	-0.32160547
16	0xbddbfce7	-0.10741597
17	0x3d8b41ac	0.06799635
18	0xbece1aa3	-0.40254697
19	0xbe86c9cd	-0.26325837
20	0xbdeb551f	-0.11490845
21	0xbe9b73cc	-0.30361784
22	0xbebd0dd3	-0.3692461
23	0xbed1fab3	-0.4101158
24	0xbed46ae6	-0.41487807
25	0xbf00afbb	-0.50268143
26	0x3f08b8cc	0.5340698
27	0xbed5ae0a	-0.41734344
28	0x3cbc5cd3	0.02299348
29	0xbdd0d510	-0.101968884
30	0xbe3a793c	-0.1821031
31	0xbe4db701	-0.20089342
32	0xbec66f21	-0.3875666
33	0xbf0c1ec0	-0.5473442
34	0xbd89f99a	-0.06737061
35	0x3d3262dd	0.043551315
36	0xbeda7840	-0.42669868
37	0xbe9b13a5	-0.30288425
38	0xbef96218	-0.48707652
39	0x3c1d52b5	0.009602238
40	0xbec5cb1b	-0.3863152
41	0xbe185f9f	-0.14880227
42	0xbe3ea1c0	-0.1861639
43	0xbe99a919	-0.30011824
44	0xbe1621e9	-0.14661373
45	0xbeacfc92	-0.33786446
46	0xbeb01ce9	-0.34397057
47	0xbe4a810b	-0.19775788
48	0xbefd7e2b	-0.4951032
49	0x3e905ec6	0.28197306
50	0x3efe56af	0.4967551
51	0xbeb8ba8c	-0.36079824
52	0xbe8f8732	-0.28032833
53	0xbed6ee0d	-0.41978493
54	0xbe5ab884	-0.2135945
55	0xbea8f4b0	-0.32999182
56	0xbe30ecce	-0.17277834
57	0xbe237af5	-0.15964873
58	0xbe8b1e88	-0.2717173
59	0xbefbd264	-0.49183953
60	0xbe85b5c1	-0.2611523
61	0x3d0eafa6	0.03483548
62	0x3f135ecd	0.5756653
63	0xbe4c96d8	-0.19979417
64	0xbebb4047	-0.36572477
65	0xbdd0b09a	-0.10189934
66	0xbe0314ff	-0.12800978
67	0x3d1bf50a	0.038075484
68	0xbdb5be6c	-0.08874211
69	0xbe6947ae	-0.2278125
70	0xbec52154	-0.3850199
71	0xbee16447	-0.44021818
72	0xbdbc41f7	-0.09192269
73	0xbef015bd	-0.46891585
74	0x3f0623f4	0.5239861
75	0xbea90e57	-0.33018753
76	0xbe3e4642	-0.18581489
77	0xbeb72c6d	-0.35776082
78	0xbd8b2ce4	-0.067956716
79	0xbe4c6f64	-0.19964367
80	0xbdd30345	-0.10303358
81	0x3f58673f	0.8453254
82	0x3e25c728	0.16189253
83	0xbeb64f33	-0.356073
84	0xbe8bc545	-0.27298942
85	0xbe9fa518	-0.31180644
86	0xbd03647b	-0.032078248
87	0x3daa5b8d	0.08318243
88	0x3d010ba9	0.03150526
89	0x3ceaf0a1	0.028679194
90	0xbf1d4f61	-0.6144925
91	0xbcdc38f7	-0.026882632
92	0x3bb43444	0.0054993946
93	0x3b8c7607	0.004286531
94	0xbef3f91e	-0.47651
95	0xbdcf45f6	-0.10120766
96	0x3eb0be30	0.34520102
97	0x3d8ecd15	0.0697271
98	0xbc297763	-0.010343405
99	0xbef59178	-0.47962546
100	0xbef2dceb	-0.47434172
101	0x3d6e87af	0.058234867
102	0xbe30af13	-0.17254286
103	0xbe83fadf	-0.25777337
104	0x3c14bbf6	0.0090780165
105	0xbef1ccf3	-0.47226676
106	0xbd885b89	-0.06658084
107	0xbdd80b40	-0.10549021
108	0xbd3b39b3	-0.045709323
109	0xbd79d5e0	-0.060994983
110	0xbdc1e80a	-0.09468086
111	0xbe10a162	-0.14124063
112	0xbe20f243	-0.15717416
113	0xbe57369e	-0.21016929
114	0xbeae7b66	-0.3407852
115	0xbeb5be2a	-0.35496646
116	0xbe92e91d	-0.28693476
117	0xbeba9048	-0.36438203
118	0xbdd8fea8	-0.10595447
119	0xbe6fbb35	-0.23411258
120	0xbf01f9b6	-0.50771654
121	0xbe1bfecf	-0.1523392
122	0xbf04f0e9	-0.519301
123	0x3e4a7059	0.1976942
124	0xbd9a9bdf	-0.07549261
125	0xbdd64f1b	-0.10464307
126	0xbecb1086	-0.39661044
127	0x3d2ba047	0.0419009
128	0xbe20e238	-0.15711296
129	0xbd2b717d	-0.041856278
130	0xbeacf1bb	-0.33778176
131	0xbe77c57b	-0.24196427
132	0xbe535101	-0.2063637
133	0xbd92ed47	-0.07174163
134	0xbdf5e969	-0.1200741
135	0xbe0a43b1	-0.13502385
136	0xbf00950e	-0.5022744
137	0xbd9ff231	-0.07809866
138	0xbecf7b74	-0.40523875
139	0xbec3cfe3	-0.38244542
140	0xbe6a3ff5	-0.2287596
141	0xbe853ffc	-0.2602538
142	0xbe5ae61c	-0.21376842
143	0xbddad8c0	-0.10685873
144	0xbe02ee93	-0.12786321
145	0xbea59135	-0.32337347
146	0xbea604d6	-0.32425565
147	0xbe501bd8	-0.20323122
148	0xbe2c4194	-0.16821891
149	0xbdc3fc6a	-0.095696285
150	0xbeaa7815	-0.3329474
151	0xbe39c917	-0.18143116
152	0xbe978b73	-0.2959858
153	0xbe64e7a4	-0.22353989
154	0xbef2d6b8	-0.47429442
155	0xbeab82bf	-0.3349819
156	0xbea8e7c1	-0.32989314
157	0x3e13da56	0.14438757
158	0xbe50ee6f	-0.20403455
159	0xbebb0c98	-0.36533046
160	0xbe3e2e82	-0.18572429
161	0xbeab1433	-0.33413848
162	0xbe7ebf4c	-0.24877661
163	0x3c370875	0.01117145
164	0xbe97f892	-0.29681832
165	0xbedd63f2	-0.43240315
166	0xbea77188	-0.32703805
167	0xbec018f4	-0.37519038
168	0xbe596cc9	-0.21232904
169	0xbdb166b1	-0.08662165
170	0xbea91a46	-0.33027858
171	0x3e544dbb	0.20732777
172	0xbe3824d0	-0.17982793
173	0xbe91f02d	-0.28503552
174	0xbef001af	-0.46876284
175	0xbe50d65f	-0.20394276
176	0x3f3ae493	0.73005027
177	0xbe8a2f96	-0.2698943
178	0x3c2d3d39	0.010573679
179	0x3e6e1593	0.23250417
180	0xbe87566b	-0.2643312
181	0x3f4d21e1	0.8012982
182	0xbeb2f41d	-0.3495187
183	0xbe0ef613	-0.13961057
184	0xbe363cb3	-0.17796592
185	0x3ead6ce4	0.3387214
186	0x3e5b091c	0.21390194
187	0xbec068da	-0.37579995
188	0xbe52a158	-0.2056936
189	0xbeaa62c7	-0.33278486
190	0xbe85d737	-0.26140758
191	0xbdc2fa54	-0.095204026
192	0x3d73e2a0	0.0595423
193	0xbe8427d1	-0.25811628
194	0xbeff276f	-0.49834773
195	0xbee8a880	-0.45441055
196	0xbf006282	-0.5015031
197	0xbe0a8db6	-0.13530621
198	0xbe5f8c1b	-0.2183079
199	0xbf12b0f3	-0.57301253
200	0x3d03386e	0.032036237
201	0x3f09860a	0.5372015
202	0x3e3efc36	0.18650898
203	0x3f550db0	0.8322401
204	0xbe78045e	-0.24220416
205	0xbd899888	-0.06718546
206	0xbe8a3704	-0.269951
207	0xbe7378bf	-0.2377653
208	0xbf02a9b1	-0.5104018
209	0xbe82b0a1	-0.25525382
210	0xbe8db704	-0.27678692
211	0xbe8e9ab1	-0.27852395
212	0xbe981b40	-0.2970829
213	0xbec9b293	-0.39394054
214	0xbe5dc897	-0.2165855
215	0x3c04fcaa	0.00811688
216	0xbf0e5234	-0.5559418
217	0xbe338e52	-0.1753476
218	0xbec530c1	-0.3851376
219	0xbd506b54	-0.050883606
220	0xbecb3804	-0.39691174
221	0xbe6d2d66	-0.2316185
222	0xbeeabc1f	-0.4584665
223	0xbe650b1f	-0.22367524
224	0xbe6e38c5	-0.23263843
225	0xbeab7596	-0.33488148
226	0xbec69417	-0.3878486
227	0x3f39262b	0.72323865
228	0xbeb9479c	-0.36187446
229	0x3d1f83d2	0.038944073
230	0xbc146efe	-0.009059666
231	0xbe876b55	-0.26449075
232	0x3f1b87c2	0.60754025
233	0xbe994b0b	-0.29940066
234	0xbe2ffe84	-0.17186934
235	0xbeaa1a95	-0.33223405
236	0xbc832871	-0.016010495
237	0xbd8117c9	-0.06303365
238	0xbd38cd27	-0.045117524
239	0x3c24f963	0.010069224
240	0xbe9c877c	-0.30572116
241	0xbebea710	-0.37236834
242	0xbe02c74b	-0.12771337
243	0xbe461167	-0.19342576
244	0xbea9ffeb	-0.33203062
245	0xbe5ddd7f	-0.21666525
246	0x3ec3970d	0.3820118
247	0xbe148f14	-0.14507705
248	0xbdd7eb5f	-0.1054294
249	0xbefdaf2b	-0.49547705
250	0x3d40383e	0.046928637
251	0xbdf73e85	-0.120724715
252	0xbeea43a2	-0.45754725
253	0xbd0e660b	-0.034765285
254	0xbe341d6e	-0.17589352
255	0xbe322337	-0.17396246

linear2.weight f4 [256, 256]
0	0x3d1c5fdd	0.03817736
1	0x3c4792cf	0.012180998
2	0xbcb42ecd	-0.021994973
3	0x3d415e69	0.047209177
4	0xbb8f6c70	-0.0043769404
5	0xbd023d5b	-0.031796794
6	0x3d597705	0.05309202
7	0x3d2ff0f5	0.042954404
8	0xbd321389	-0.04347566
9	0x3cc1e695	0.02366952
10	0x3d3d34a4	0.04619278
11	0x3d5c41e6	0.053773783
12	0xbd2299a8	-0.03969732
13	0xbd8e2964	-0.069414884
14	0xbd5343b6	-0.051578246
15	0x3d489865	0.04897346
16	0x3d1e69c5	0.03867509
17	0xbd47a2a7	-0.0487391
18	0xbd513902	-0.051079758
19	0xbd891163	-0.066927694
20	0xbd6dfc79	-0.058102105
21	0xbd8bf1ce	-0.0683323
22	0x3d4ed45b	0.050495487
23	0x3ce06b23	0.027394837
24	0xbc3a05ac	-0.011353891
25	0xbce1e3f5	-0.027574519
26	0x3c546cfb	0.012965436
27	0xbd423627	-0.047414925
28	0x3c5ffbc2	0.013670864
29	0x3ce52517	0.027971787
30	0xbd7968d7	-0.060891
31	0xbd3e5f15	-0.046477396
32	0x3d07d1fe	0.03315925
33	0x3cc98fbe	0.024604674
34	0x3bd5fa51	0.006530084
35	0xbb90f3aa	-0.0044235783
36	0x3d59eb16	0.05320271
37	0xbcaa8a4d	-0.0208179
38	0xbcd6efd6	-0.02623741
39	0x3d034cc1	0.03205562
40	0xbd0c9ce5	-0.034329314
41	0xbc3fdd38	-0.0117104575
42	0xbd3358c4	-0.043785825
43	0xbd0a4770	-0.033759534
44	0x3d22f909	0.03978828
45	0x3c91cb99	0.017797278
46	0xbd422c0e	-0.047405295
47	0x3cb89f14	0.022536792
48	0x3c70ab11	0.014689223
49	0xbd0bb47a	-0.034107663
50	0xbce22b09	-0.027608411
51	0xbd3b7fd4	-0.045776203
52	0xbc99d4b2	-0.018778179
53	0x3cfa5789	0.030559318
54	0x3cf3a9d0	0.029744059
55	0xb9483dec	-0.00019096554
56	0x3cdb1338	0.026742563
57	0x3c8efa85	0.017453441
58	0x3cbf0f6e	0.023322787
59	0xbbd53a27	-0.0065071764
60	0x3c982e0f	0.01857665
61	0xbce7878a	-0.028262872
62	0xbbd05e05	-0.0063588643
63	0xbce52192	-0.02797011
64	0x3c9c2c3d	0.019064063
65	0x3d1ba547	0.037999418
66	0xbd2e89ea	-0.042611994
67	0x3c4c9e4a	0.012488911
68	0xbd0562b6	-0.03256484
69	0x3c897122	0.016777579
70	0x3d2e9cfb	0.042630177
71	0xbcbcc542	-0.023043279
72	0xbd47d6dc	-0.04878889
73	0x3d2a4772	0.04157204
74	0xbd33d80c	-0.04390721
75	0xbd5e362b	-0.054250877
76	0xbd2054ad	-0.039143253
77	0xbd496ec2	-0.049177893
78	0x3d24bcc7	0.040219095
79	0x3c96c758	0.018405601
80	0xbc3d6eda	-0.011562074
81	0x3c7e8804	0.015535358
82	0x3c7e6ac2	0.015528383
83	0x3ca2cef1	0.019874068
84	0xbcc52c22	-0.024068896
85	0xbd2c93a3	-0.042132985
86	0xbc7cf10d	-0.01543833
87	0x3d6d80a7	0.05798402
88	0xbd086b8e	-0.033305697
89	0x3ce549af	0.027989237
90	0xbd9c4a93	-0.076314114
91	0xbc6dacfb	-0.014506574
92	0xbbc137f0	-0.005896561
93	0xbc847945	-0.016171107
94	0x3d036e17	0.03208741
95	0x3cf4b024	0.029869147
96	0xbd30b7bd	-0.043143976
97	0xb9f9ecf0	-0.00047669513
98	0xbcd117aa	-0.02552398
99	0xbd2afeda	-0.04174695
100	0xbd4b5876	-0.04964491
101	0xbcdf4dc8	-0.027258769
102	0xbd0d4349	-0.034487996
103	0x3cf9eadc	0.030507497
104	0xbb27cadd	-0.0025603094
105	0xbc6d176f	-0.014470919
106	0x3c3fbd79	0.011702889
107	0x3c612c20	0.01374343
108	0x3ce3a9f8	0.027791008
109	0x3bccc5ce	0.006249166
110	0x3cf27180	0.029595137
111	0x3bcbb933	0.006217146
112	0x3d61330f	0.054980334
113	0xbcc54f94	-0.024085797
114	0x3c82cc0e	0.015966441
115	0xbd426170	-0.047456205
116	0xbce72893	-0.02821759
117	0xbd46e6d5	-0.048559982
118	0xbd69b44b	-0.057056706
119	0xbd8020b5	-0.06256238
120	0x3d2bf7b6	0.041984282
121	0x3cc50f7d	0.024055237
122	0x3c763ad6	0.015028676
123	0xbd52b469	-0.051441584
124	0x3d0c5dd8	0.034269184
125	0xbd1dc9d6	-0.038522564
126	0xbd8730de	-0.066011176
127	0xbd22c75d	-0.03974091
128	0x3d5312cd	0.0515316
129	0x3d472349	0.048617635
130	0xbcfe6709	-0.03105499
131	0x3cbdf608	0.023188606
132	0xbd8612fc	-0.0654659
133	0x3bd6fbd0	0.00656078
134	0xbda21345	-0.079138316
135	0x3c82c44e	0.015962746
136	0xbbd2e728	-0.0064362474
137	0x3d3152ca	0.043291844
138	0xbd70a3f9	-0.058750127
139	0x3d44f00d	0.048080493
140	0xbd1a2ebe	-0.037642233
141	0xbcc5aaa9	-0.024129229
142	0x3c947197	0.01812057
143	0x3cc32826	0.023822855
144	0xbd01e232	-0.031709857
145	0x3c74e6d5	0.014947613
146	0x3ac12a23	0.0014737289
147	0x3c76197a	0.0150207225
148	0xbc4adf65	-0.012382363
149	0x3d57e730	0.052710712
150	0x3c8b93b6	0.017038208
151	0xbd232a4e	-0.039835267
152	0xbd40ade7	-0.047040846
153	0x3d062fd3	0.032760452
154	0x3c278579	0.010224693
155	0xbda5e06f	-0.08099448
156	0x3af1bde9	0.0018443438
157	0xbc2afc88	-0.010436185
158	0xbcf7c8ac	-0.030247055
159	0xbd1af3a0	-0.037829995
160	0x3d27b5b0	0.040944755
161	0xbc151a1b	-0.009100462
162	0x3cc4be1d	0.024016434
163	0xbd82152b	-0.06351694
164	0x3c891919	0.0167356
165	0x3cc8016e	0.024414744
166	0x3d0b3cc7	0.03399351
167	0xbc340c2d	-0.010989231
168	0xbbef62ab	-0.0073054633
169	0x3d14f2b1	0.03636426
170	0xbd626271	-0.055269662
171	0xbd98cbc9	-0.07460744
172	0x3b879945	0.004138144
173	0x3c68839c	0.014191534
174	0x3cada90e	0.021198776
175	0xbd407922	-0.04699052
176	0xbd0a535a	-0.033770896
177	0xbd1a6322	-0.037692197
178	0xbc33a0cc	-0.01096363
179	0xbc322dd3	-0.010875183
180	0xbd34a1c6	-0.04409959
181	0x3b06ad0f	0.0020549928
182	0xbc9035d2	-0.017603789
183	0xbda664c5	-0.08124689
184	0x3be1ce89	0.006891076
185	0xbc94b6c7	-0.018153561
186	0xbd525baf	-0.051356968
187	0x3c9efc11	0.019407304
188	0xbcdcd395	-0.026956359
189	0x3cbc0055	0.022949377
190	0xbc191650	-0.009343699
191	0xbc46d17b	-0.012134905
192	0xbc0f0b8b	-0.008730779
193	0x3d1078a3	0.0352713
194	0x3cc8683c	0.024463765
195	0x3d8056fc	0.06266591
196	0xbcd34cde	-0.02579349
197	0xbd9dc06a	-0.07702716
198	0xbd11a039	-0.03555319
199	0xbb676ad9	-0.003531149
200	0x3cafd8b7	0.021465642
201	0x3d291443	0.04127909
202	0xbda8781d	-0.08226035
203	0xbd6da4dc	-0.05801855
204	0x3c5c72fc	0.013455149
205	0x3d820e9a	0.06350441
206	0xbd86d9cf	-0.065845124
207	0xbd5ecaf7	-0.05439278
208	0xbc254d67	-0.010089255
209	0x3c60d512	0.013722675
210	0x3be66b21	0.0070318137
211	0x3ca0846a	0.01959439
212	0x3d1634a7	0.036671307
213	0xbc379afa	-0.011206383
214	0x3ce83189	0.028343933
215	0xbc6925b9	-0.014230185
216	0xbbd3bbd7	-0.0064616012
217	0x3cd933a0	0.026513875
218	0xbc820fc8	-0.015876666
219	0xbbdd9daf	-0.006763182
220	0x3c897049	0.016777175
221	0xbd3c4170	-0.045960844
222	0xbc5389b6	-0.012911251
223	0x3d46a84f	0.048500355
224	0xbc8995d8	-0.016795084
225	0x3c48f5b2	0.01226561
226	0x3ba8e225	0.0051539117
227	0x3c208490	0.00979723
228	0xbd7bb721	-0.061453942
229	0xbd4a6271	-0.049410287
230	0xbd8fc48c	-0.0701991
231	0xbd5a8c47	-0.053356435
232	0xbd6c454e	-0.05768328
233	0xbbd329fc	-0.006444214
234	0x3d019c23	0.031643044
235	0xbc2fc56a	-0.0107282195
236	0xbd42f32d	-0.04759519
237	0xbd8ba8e4	-0.06819323
238	0xbd82001b	-0.06347676
239	0x3cbd1701	0.023082258
240	0xbd4eccd5	-0.05048831
241	0x3d3d0b7a	0.046153523
242	0xbcbbd58b	-0.022928974
243	0xbcdb77fd	-0.026790613
244	0xbce23ce0	-0.027616918
245	0xbd74efbd	-0.059798945
246	0xbd2d071b	-0.042243104
247	0xbaed8825	-0.0018122239
248	0xbcbf7f80	-0.023376226
249	0x39a03bab	0.00030562034
250	0xbcec105d	-0.028816396
251	0x3d32c361	0.04364336
252	0xbd58a8cd	-0.052895356
253	0x3d0a93a3	0.033832204
254	0x3b1d8c8c	0.0024040071
255	0x3cad9671	0.0211899

linear2.bias f4 [256]
0	0xbd8c48e6	-0.06849842
1	0xbcc0f8de	-0.02355617
2	0x3d0b10f4	0.033951715
3	0x3d2df78b	0.042472403
4	0x3d1831b4	0.037156776
5	0xbc172354	-0.0092247315
6	0x3f889f77	1.0673665
7	0x3c05b118	0.008159898
8	0x3ccba787	0.024860157
9	0xbd30582f	-0.04305285
10	0xbd256eee	-0.040388994
11	0xbba46879	-0.005017337
12	0x3cabe9e2	0.020985547
13	0xbc71ce9e	-0.014758734
14	0x3c9b5879	0.018963085
15	0xbd5f388e	-0.054497294
16	0x3d289ba3	0.04116405
17	0xbd23bbfc	-0.039974198
18	0x3bb99338	0.005663302
19	0x3d158acf	0.03650933
20	0xbdc68b9a	-0.09694596
21	0xbc949df2	-0.01814172
22	0x3d35b555	0.044362385
23	0xbda7a31c	-0.081854075
24	0xbc0d0d1a	-0.008609081
25	0xbc6eb9f7	-0.014570705
26	0xbb2f63d1	-0.0026762376
27	0xbd341ade	-0.043970935
28	0xbbb578ce	-0.0055380827
29	0x3c2fe757	0.010736308
30	0x3cec7862	0.028865997
31	0xbc733849	-0.014844962
32	0xb9f864fc	-0.00047377485
33	0xbd5c91d4	-0.05385001
34	0xbd8bf3de	-0.06833623
35	0xbdd3b666	-0.10337524
36	0xbd09443a	-0.03351233
37	0xbd5394f5	-0.05165573
38	0xbcf3c39f	-0.029756365
39	0xbd539636	-0.051656924
40	0xbd8a6ba8	-0.06758815
41	0xbc2d4573	-0.01057564
42	0xbdbd826f	-0.09253394
43	0x3cda0973	0.026615834
44	0x3d71c4c2	0.059025533
45	0x3ad95d68	0.0016583623
46	0x3d04b877	0.032402482
47	0x3cbef5b4	0.02331052
48	0xbd72e63f	-0.05930161
49	0xbd0e9425	-0.03480925
50	0x3cd8ec9d	0.026480014
51	0xbc8da4f4	-0.01729057
52	0xbdbf7d88	-0.09350115
53	0xbd0c83fa	-0.03430555
54	0xbca6d495	-0.020365039
55	0xbd1915c3	-0.03737427
56	0x39cb66c4	0.00038795744
57	0xbd31490f	-0.043282565
58	0x3c7ef196	0.015560528
59	0xbc492e1f	-0.0122790625
60	0xbd372986	-0.044717334
61	0xbccb38ae	-0.0248073
62	0xbd94fa6c	-0.07274327
63	0xbd3b97f9	-0.04579923
64	0xbd1816f0	-0.03713125
65	0xbd17c827	-0.037056115
66	0xbd090035	-0.033447463
67	0xbd260a1a	-0.040536977
68	0x3d0907e8	0.033454806
69	0x3c88b058	0.01668565
70	0x3c65dd68	0.014029838
71	0xbc0284db	-0.0079662455
72	0xbdd69418	-0.104774654
73	0xbd6a2982	-0.05716849
74	0xbd903213	-0.07040801
75	0xbd05d303	-0.03267194
76	0x3d2560ef	0.040375646
77	0xbdbd3399	-0.09238357
78	0x3cb55190	0.022133619
79	0x3cf608ec	0.030033551
80	0x3c77de66	0.0151287075
81	0xbd657c41	-0.0560267
82	0xbcad2875	-0.021137455
83	0xbcc42767	-0.02394457
84	0xbd985a28	-0.07439071
85	0xbda1758f	-0.07883751
86	0xbd8195d9	-0.06327409
87	0xbde4834b	-0.11157855
88	0xb9516e9f	-0.00019973003
89	0xbd659f1a	-0.056059934
90	0xbd3c7e65	-0.046018977
91	0x3c90193d	0.01759016
92	0xbcfe5ef3	-0.031051135
93	0xbded19b6	-0.115771696
94	0x3cf8c5a5	0.030367682
95	0x3bae03dd	0.005310519
96	0xbda12967	-0.07869225
97	0x3ca95bfb	0.020673743
98	0xbd435963	-0.047692668
99	0x3c31865d	0.010835257
100	0xbd81fdbb	-0.06347223
101	0xbd28e74a	-0.0412362
102	0xbd87d578	-0.06632513
103	0xbd3397ba	-0.04384587
104	0xbd8c67d2	-0.0685574
105	0x3c8ae4ae	0.016954746
106	0xbc266210	-0.010155216
107	0xbdc0bb37	-0.094107084
108	0xbd2ab849	-0.041679654
109	0xbd4f1924	-0.050561085
110	0xbbd428e0	-0.0064745992
111	0xbd3d40b8	-0.0462043
112	0xbd8b9db5	-0.068171896
113	0xbd610a78	-0.054941624
114	0xbd1a776b	-0.037711542
115	0xbc29c7f2	-0.010362612
116	0xbd8420a6	-0.0645154
117	0xbd9903f9	-0.07471461
118	0xbc1307a9	-0.008973994
119	0x3c7c45f9	0.015397542
120	0x3c940487	0.018068565
121	0xbd0dd338	-0.034625262
122	0x3cf69f72	0.030105326
123	0xbcde339c	-0.027124219
124	0x3c61bd1c	0.013777997
125	0xbd8c78e8	-0.068589985
126	0x3c03e206	0.008049494
127	0xbcf127be	-0.029437896
128	0xbd5bed7a	-0.053693272
129	0xbb3f865d	-0.0029224374
130	0x3d316028	0.043304592
131	0xbd6ad69e	-0.05733358
132	0xbd8fe698	-0.07026404
133	0x3d069494	0.03285654
134	0xbd9c958a	-0.0764571
135	0xbc72bf17	-0.014816067
136	0xbd076157	-0.033051815
137	0xbb471a0f	-0.0030380522
138	0xbd1e71a6	-0.038682602
139	0xbd393f23	-0.045226227
140	0x3c51ef59	0.012813413
141	0xbd200769	-0.039069567
142	0xbd2c4020	-0.042053342
143	0x3cd4b446	0.025964867
144	0xbd290b53	-0.041270565
145	0xbd9d82ba	-0.0769095
146	0xbd29ac23	-0.041423928
147	0x3d17f672	0.037100263
148	0xbb295b92	-0.0025841934
149	0xbd8d8940	-0.06910944
150	0xbd0f663c	-0.035009608
151	0xbd58e854	-0.05295594
152	0xbda3faaf	-0.080067985
153	0xbd71de4e	-0.059049897
154	0x3c3a2162	0.011360498
155	0xbd187e69	-0.03722993
156	0xbd1b6b9e	-0.03794443
157	0xbcc94612	-0.024569545
158	0x3c8963da	0.016771246
159	0xbd85dc01	-0.06536103
160	0xbce6a31f	-0.028153954
161	0x3ca3bd87	0.019987835
162	0xbcfea9fa	-0.03108691
163	0xbdab073c	-0.08350989
164	0xbc32dce7	-0.010916925
165	0xbc931036	-0.017952066
166	0x3bc78c15	0.006089697
167	0xbcfb27c8	-0.030658618
168	0xbd0dcae4	-0.03461732
169	0x3bc3096b	0.0059520504
170	0xbc3771dd	-0.011196581
171	0x3c1318db	0.008978094
172	0xbb26a0f7	-0.0025425532
173	0xbc85c78b	-0.016330501
174	0x3c5c3f0c	0.013442766
175	0x3d815167	0.063143544
176	0xbd5762ba	-0.052584387
177	0x3c036680	0.008020043
178	0xbc9a8d64	-0.018866248
179	0xbd3436be	-0.04399752
180	0xbd7c19ad	-0.061547924
181	0x3c5da190	0.013527289
182	0xbd996118	-0.07489222
183	0x3b91db64	0.004451202
184	0xbd8a095a	-0.06740065
185	0xbd91d579	-0.07120795
186	0x3cc2f261	0.023797216
187	0xbd8660b4	-0.065614134
188	0xbd4b1a28	-0.04958549
189	0xbd239fa6	-0.039947174
190	0xbd835305	-0.06412319
191	0xbce866df	-0.028369365
192	0xbd4f5cbf	-0.05062556
193	0xbd0ecd9e	-0.03486406
194	0xbd768741	-0.060187582
195	0xbd9ade97	-0.07561987
196	0x3d8b0ddc	0.06789753
197	0xbbae200c	-0.005313879
198	0x3aec8dde	0.0018047651
199	0xbd01694b	-0.031594556
200	0xbd7c5978	-0.06160876
201	0xbd3ee271	-0.04660267
202	0xbd81be92	-0.063351765
203	0x3c83ec6e	0.01610395
204	0xbd182aeb	-0.037150305
205	0x3d4917bb	0.049094897
206	0x3cc07397	0.023492618
207	0xbd3c844d	-0.04602461
208	0x3c4a4de4	0.012347672
209	0xbbfc9074	-0.00770765
210	0x3cbef918	0.023312137
211	0xbd034638	-0.032049388
212	0xbcc77d35	-0.024351696
213	0xbd769ae1	-0.060206298
214	0xbda1b1d0	-0.07895243
215	0xbd271978	-0.040795773
216	0x3ca5be27	0.020232273
217	0x3d38432e	0.044985943
218	0xbd643804	-0.055717483
219	0xbdc84bda	-0.097800925
220	0xbdb25959	-0.08708448
221	0xbc969127	-0.01837976
222	0x3c5eb6b6	0.013593366
223	0x3c2efee2	0.010680886
224	0xbd59521e	-0.05305683
225	0x3c15a989	0.009134659
226	0xbaa6f8b7	-0.0012738918
227	0xbd6321d5	-0.055452187
228	0x3bc9ca5c	0.0061581563
229	0xbd9299b1	-0.071582206
230	0xbdb043a6	-0.08606653
231	0xbc13fd6b	-0.0090325875
232	0x3bb9ae76	0.0056665493
233	0x3ccb3aea	0.024808366
234	0x3c4e2927	0.012583054
235	0xbab56ce6	-0.0013841658
236	0xbd37e88f	-0.04489952
237	0xbc1d59dd	-0.009603945
238	0xbd8a6b48	-0.067587435
239	0xbd15a114	-0.03653057
240	0x39917085	0.0002774039
241	0xbd73258c	-0.05936198
242	0x3d05d78c	0.032676265
243	0x3d1a2976	0.037637196
244	0xbcbde356	-0.023179691
245	0xbd66abc3	-0.05631615
246	0xbd96adeb	-0.07357391
247	0xbdb29ed8	-0.08721703
248	0xbc9d607a	-0.019211043
249	0xbd398bee	-0.045299463
250	0x3b4e7bc2	0.003150687
251	0xbd9608c5	-0.073258914
252	0xbd9c02c8	-0.07617718
253	0x3cc58fa7	0.02411635
254	0xbd472a36	-0.04862424
255	0xbdd6c333	-0.1048645

linear3.weight f4 [4, 256]
0	0x3c2262fd	0.009911296
1	0xbc858fa3	-0.016303843
2	0xbc3d92cf	-0.011570646
3	0xbc7a66f9	-0.01528334
4	0xbcaef50f	-0.021357087
5	0x3d01a512	0.031651564
6	0xbdf72d85	-0.12069229
7	0xbbf60940	-0.007508427
8	0xbc35ce76	-0.011096587
9	0xbd16d4eb	-0.03682415
10	0xbd395b89	-0.04525331
11	0x3d3447db	0.04401384
12	0x3cf3bb95	0.029752532
13	0x3d676f9d	0.056502927
14	0xbd87d86a	-0.066330746
15	0xbcf56cbe	-0.029959079
16	0xbd0985db	-0.03357492
17	0x3d667c23	0.05627073
18	0x3d388d97	0.045056906
19	0xbd33bcba	-0.043881156
20	0xbd7c18d6	-0.061547123
21	0xbc6094df	-0.013707369
22	0xbcbfd40b	-0.02341654
23	0xbc8223cc	-0.01588621
24	0x3b90c74c	0.0044182893
25	0xbc1fd3d1	-0.009755091
26	0x3ccad118	0.024757907
27	0xbd408d73	-0.047009896
28	0xbcf95719	-0.03043704
29	0x3d8be1d8	0.06830186
30	0xbce55be7	-0.027997924
31	0x3d81e957	0.06343334
32	0xbc4e1724	-0.012578759
33	0xbcb12809	-0.021625536
34	0xbcb0ab99	-0.0215662
35	0x3c56fada	0.013121331
36	0x3c9e9a04	0.01936055
37	0xbc8db730	-0.017299265
38	0x3cff68f4	0.031177975
39	0x3c981519	0.018564748
40	0x3ba05ca8	0.004893858
41	0xbccd0404	-0.025026329
42	0xbb85502a	-0.004068394
43	0xbca1791c	-0.01971107
44	0xbd419b89	-0.04726747
45	0xbbe3154b	-0.0069300286
46	0xbc43b646	-0.011945313
47	0xbb85b8be	-0.004080861
48	0x3ccd23fa	0.025041569
49	0x3d53e505	0.051732082
50	0xbbebceaa	-0.007196267
51	0xbd3f0e6f	-0.046644624
52	0xbc279099	-0.010227346
53	0xbcbd0a13	-0.023076093
54	0xbd0992be	-0.03358721
55	0xbd0c017b	-0.0341811
56	0x3d5459c3	0.051843416
57	0xbc44116b	-0.011967043
58	0x3c4cf1b2	0.0125087965
59	0x3c20a62a	0.009805242
60	0x3bea3ab5	0.0071481117
61	0xbc23be39	-0.009994083
62	0xbb99734e	-0.004682935
63	0x3ad7a28f	0.0016451644
64	0x3c47828f	0.012177124
65	0xbcbcb1e1	-0.023034038
66	0x3ba0a5b3	0.0049025654
67	0xbbb3cb6f	-0.0054868977
68	0x3d125f51	0.035735432
69	0x3d2fcbbe	0.042918913
70	0xbd24ce48	-0.040235788
71	0x3a846cfa	0.0010103278
72	0xbc235489	-0.009968885
73	0x3d3d5177	0.04622027
74	0xbcfcc94e	-0.030857708
75	0xbcf44b58	-0.029821083
76	0xbbd7eed2	-0.006589749
77	0x3cbc6d4c	0.023001336
78	0x3b8394f9	0.0040155617
79	0xbb904c3c	-0.004403619
80	0x3c6bc09b	0.014389182
81	0x3c28a0ed	0.010292274
82	0xbc6c2437	-0.014412931
83	0x3ca71b1b	0.020398667
84	0xbc770418	-0.01507666
85	0x3d41f8e9	0.04735652
86	0x3cbdad29	0.023153858
87	0x3cc64c9a	0.024206448
88	0xbd12c278	-0.03582999
89	0xb6865e75	-4.0045074e-06
90	0xbc21eec5	-0.009883587
91	0x3d30f075	0.043198068
92	0x3c80739d	0.015680129
93	0x3d3d2282	0.046175487
94	0xbce89fa1	-0.02839643
95	0xbd12c639	-0.03583357
96	0x3d50bfe2	0.050964244
97	0x3b505000	0.0031785965
98	0x3cbe40ad	0.0232242
99	0x3c896582	0.016772036
100	0xbc4fc970	-0.012682304
101	0xbbc955e7	-0.0061442736
102	0xbd8a5536	-0.06754534
103	0x3d120ea5	0.035658497
104	0xbca51106	-0.020149719
105	0x3d6b8a59	0.057504985
106	0x3be13905	0.0068732523
107	0xbd73552a	-0.05940739
108	0xbd204f0f	-0.039137896
109	0xbb6900f4	-0.0035553547
110	0x3b48a3b7	0.003061516
111	0x3c8a5799	0.016887473
112	0x3d548a96	0.05188998
113	0xbcb3cf1c	-0.021949343
114	0xbcc703fb	-0.02429389
115	0x3b86fc39	0.0041194228
116	0x3bb3e618	0.005490076
117	0x3afee078	0.0019445559
118	0x3d096f32	0.03355331
119	0xbc89748a	-0.016779203
120	0xbbbfa677	-0.0058487016
121	0xbc93ea38	-0.01805602
122	0x3cbfe72b	0.02342566
123	0xbc36ed5c	-0.011164989
124	0xbd84aa39	-0.0647778
125	0xbd1e4163	-0.038636576
126	0xbb17ca8a	-0.0023161494
127	0x3bb88c89	0.0056319875
128	0x3c87a5e1	0.01655859
129	0xbd20dff2	-0.03927607
130	0xbb5e0207	-0.003387572
131	0xbc0e888d	-0.008699548
132	0xbbe16d6d	-0.0068794996
133	0xbc0114bc	-0.007878479
134	0x3d12affa	0.035812356
135	0xbcf8a1db	-0.030350616
136	0xbd417f05	-0.047240276
137	0xbd81fd2d	-0.063471176
138	0x3cbf7d29	0.02337511
139	0xbc9f6364	-0.019456573
140	0x3c8929a4	0.016743489
141	0xbd33df7f	-0.043914314
142	0xbbd8b275	-0.0066130706
143	0x3d06a2ef	0.03287023
144	0xbbd2689d	-0.0064211623
145	0x3c6c77e0	0.014432877
146	0x3cf36dc3	0.029715424
147	0xbd077445	-0.033069868
148	0x3c878f07	0.016547693
149	0x3c9fc84f	0.019504694
150	0x3d230ef6	0.03980919
151	0x3a35b33a	0.0006931309
152	0xbcbf49aa	-0.023350555
153	0x3c1826a4	0.009286556
154	0x3d100100	0.035157204
155	0xbd069007	-0.0328522
156	0x3cfeef38	0.031119928
157	0x3cc6c4d3	0.024263775
158	0x3c41b6bf	0.011823355
159	0xbbcc4b96	-0.0062345965
160	0x3cfceefe	0.03087568
161	0x3c6365ed	0.0138792815
162	0xbb544af9	-0.003239332
163	0x3d2378be	0.03991007
164	0x3c962b06	0.018331062
165	0x3c719bb5	0.014746596
166	0xbd0dbcce	-0.034603886
167	0xbcb584dd	-0.02215808
168	0x3d3f06b4	0.046637252
169	0x3c26467b	0.01014864
170	0x3c45ed79	0.012080544
171	0xbd2134c6	-0.03935697
172	0x3cc27514	0.023737468
173	0x3ce4eabe	0.027943965
174	0xbd23bbde	-0.039974086
175	0xbc159e27	-0.009131945
176	0xbc7fb49b	-0.015607025
177	0xbcb1080d	-0.021610284
178	0x3c74fd48	0.014952965
179	0x3ca04def	0.019568412
180	0x3c21f128	0.009884156
181	0xbd1ed7bf	-0.03877997
182	0xbca942f2	-0.020661805
183	0xbd501d5a	-0.05080924
184	0x3b1e2060	0.0024128184
185	0xbd8ad880	-0.06779575
186	0x3d2507b0	0.040290534
187	0xbbec0e29	-0.0072038365
188	0x3baa16e2	0.005190716
189	0xbbae61a9	-0.0053217006
190	0xbce01e76	-0.027358275
191	0x3d09d0a5	0.033646245
192	0x3c76ebb6	0.015070846
193	0xbd1c5925	-0.038170952
194	0x3c813f18	0.015777156
195	0xbc5e7df8	-0.013579838
196	0xbcb56ff7	-0.022148116
197	0x3d730de6	0.059339426
198	0xbc9f5f60	-0.019454658
199	0x3b53f04f	0.003233928
200	0x3ca5ab0b	0.020223161
201	0xbd54924e	-0.05189734
202	0x3d1bbf50	0.038024247
203	0x3bc1ff2a	0.0059203105
204	0xbd2222d3	-0.039583992
205	0xbd3da766	-0.04630222
206	0x3c11cf13	0.008899468
207	0xbc96430e	-0.018342521
208	0xbd1d864f	-0.038458165
209	0xbd05c067	-0.032654192
210	0xbb1da4a6	-0.0024054437
211	0x3d4350aa	0.04768435
212	0xbcbadacd	-0.02280941
213	0x3d2c4c66	0.042065047
214	0x3b00d9a0	0.0019660965
215	0xbb21a550	-0.0024665184
216	0xbd135381	-0.035968307
217	0x3cfc49cc	0.030796908
218	0x3d0dd37b	0.03462551
219	0xbbaa509c	-0.0051975977
220	0x3d12fb38	0.035884112
221	0x3cc0ff11	0.023559125
222	0xbd34fe85	-0.04418804
223	0xbc531771	-0.012884007
224	0xbd2342a5	-0.03985848
225	0x3b59dea0	0.0033244267
226	0xbc28a48b	-0.010293136
227	0x3d0d2900	0.03446293
228	0x3c041d04	0.0080635585
229	0x38a63e2d	7.927078e-05
230	0x3d160443	0.036625158
231	0xbc0f5e4f	-0.008750512
232	0x3c8144db	0.015779903
233	0x3d08f214	0.03343399
234	0xbd4f5bd0	-0.05062467
235	0xbc8b3faf	-0.01699814
236	0x3cd26141	0.02568114
237	0xbd2401af	-0.040040668
238	0xbcb853e3	-0.022500938
239	0xbc3bf7a4	-0.011472616
240	0x3d7f5330	0.062335193
241	0xbc659591	-0.01401271
242	0xbcc8979c	-0.024486355
243	0xbd28c059	-0.041199062
244	0x3ce7550e	0.0282388
245	0x3cd6060a	0.026125927
246	0x3b8cbbea	0.004294862
247	0x3bd81378	0.0065941177
248	0xbc3fd868	-0.01170931
249	0x3bb587db	0.005539877
250	0xbbc1d44d	-0.005915201
251	0x3d5486af	0.051886257
252	0x3baaa9cd	0.00520823
253	0xbc86f8c2	-0.016476039
254	0xbca0c606	-0.019625675
255	0xbc7c071e	-0.015382556

linear3.bias f4 [4]
0	0xbe9c4cbc	-0.30527294
1	0xbee7812b	-0.45215735
2	0xbec14a8e	-0.37752193
3	0xbefa1634	-0.48845065
