2048_AI/model/model.pth (torch, 287028 bytes, 6 tensors)

linear1.weight f4 [256, 16]
00000000: 6874 87be 09b3 ffbd cc98 19be 8d37 29bd
00000010: 7e5e 213c 3a84 c6be c836 80be f068 b03c
00000020: acf0 8bbe 3ba2 87be 583a 5ebe f153 0fbe
00000030: e7ea 9b3d afec 2f3d 08e2 893d 1e7b 363e
00000040: d1cf 78be 90d3 a7be 728a a4be 4f48 083e
00000050: 2380 eabc cb9e a2bb 7d8b a2bd 2b6d a9be
00000060: d748 65be 4144 db3c 9ece acbe 2abb 8cbe
00000070: 24b5 83bd 85e6 df3d 3d5e 45be 0674 1a3d
00000080: 71e8 aabe 79bf bbba e4ff 16be 5fa5 b73d
00000090: 0d22 e83d 85c9 63be 4bd8 1bbc ec0a 793d
000000a0: 8d4a cfbe bd50 b3be b86d 1fbe 481a 4bbd
000000b0: 31a7 973d c12f 123e 6d48 6ebe fc99 44be
000000c0: c149 873c 0297 953d 3e41 b63d 5787 90be
000000d0: 66fc 143e b238 2f3e f233 69be 5cd4 04be
000000e0: 3cf3 21be 0c7c 8ebe 8123 5dbe 4b83 b3be
000000f0: 504f d0bd 1e30 543d 540c 0e3c 695a 173c
00000100: 352b d83d 23e3 99bb d8a5 113d 819f 83be
00000110: cc9d acbe 68ee e0bd 7776 c8bd d726 3cbe
00000120: 7487 913d 6c4a bebc 730e 85be 7ad7 84be
00000130: c591 f9bd bf72 a8be 1d0f f73c f95b 07be
00000140: 7167 933d 2777 b1be 4aa4 57be 120e c2bd
00000150: dfac 6bbe f0e7 35be 971a 89be 5841 ef3c
00000160: b83f a8be aedf 083d 75c7 24be efb3 94be
00000170: cb5c 47bd 4aca 7fbe 934e 5dbe 1015 1ebd
00000180: 5be4 02be d69b 70be 7be4 73be 2e0b 7c3d
00000190: 8327 31be 4671 d1bc 0da4 cdbe 3842 183e
000001a0: 166a f9bd 3edf b2be 0cef 023e cc37 50be
000001b0: c36f 80bc 1ec8 e63c 610f 883d 4fbe a2bd
000001c0: e66c 42be 7490 e4bb 43a7 53be fa36 613d
000001d0: 43dd ef3d 1a7c 143b 261e 20bc 1da1 063c
000001e0: 9900 33be dea1 f6bd 1064 08bd 72c1 db3d
000001f0: 4f2f 59be d298 b93d cf66 11bd b646 663e
00000200: 5c93 15be f7be 29bd 761a 5cbd 62fc 973e
00000210: 4c56 0a3d 71b7 aabd 532e 62be 139b 023e
00000220: 0520 27be 8fea 193c 48d1 133e 26eb 9fbe
00000230: 43f3 223e 0379 cdbd 1e48 39bc 1312 d23d
00000240: 190c 173e 75a5 e03d 3fec f3ba 9de9 883e
00000250: 2c3b 323e a4a2 e53d 67d3 523d d598 12bd
00000260: 02b5 1abd 134c fd3c 97e0 cd3d 8e3b 363e
00000270: 8b32 283e 1771 ed3d 4be5 ac3d 2b63 21bd
00000280: f54a 7f3c 349c 473d 89cb 9d3d fd84 e3be
00000290: 3e3b f1bd b1bd 8bbe 3646 53be 90f5 2a3d
000002a0: 2502 8a3d 0419 f33c 94dd babd 3b2e 83bc
000002b0: 318e 5dbe 1faf e2bd 12b8 413d 5052 05be
000002c0: 7f31 97be 275f 2abe a88c a0be 0b95 81be
000002d0: 8679 11bc 13a9 9b3c aaf1 abbe d543 913c
000002e0: e6ec 9bbb 4a0b d7bd 78f6 6abe 4cf1 77be
000002f0: 8c25 6bbc 10f5 2f3d 2a02 10bd cc75 d83d
00000300: 9865 03be ea3e 0dbe 2946 8abe 7f0c c6bd
00000310: 645e c8bb 8b91 033d 3d85 babe e057 9abe
00000320: 7dc5 dabe 2b96 68be 110a b0be de70 6abe
00000330: 2f58 a03d 8a6e 9cbd 99ae 9cbc 6a8b b43d
00000340: 0af0 4f3d 779a 223d d43d 6fbc 88a9 15be
00000350: e96e 253c 1110 82be 1fb3 37be 42fc 6fbe
00000360: 1c11 fdbe 2eb4 b7be 55cd 08bd 0c8c aebd
00000370: b931 6b3d b91f dd3d 7e19 b83d 5dae e7bc
00000380: b9db bbbe 05ff 893d 51a8 a8be 6b17 c7bc
00000390: 0082 35be 4b29 09be 7745 7ebe 9145 26be
000003a0: f490 30be 7d10 2bbe 8f27 e73b 2719 3dbe
000003b0: 3865 1ebe 0d7a 78be 1667 74bd b515 89be
000003c0: 077c 203e deb8 93bd ad9a 0d3d e27e d8be
000003d0: f55b 093d 9c0f e4be 1f84 88be 09c1 31be
000003e0: ce3b 26be 80cd 48be c628 16be 11ab a7be
000003f0: a15d 87bd 70c0 d6be eb1d 433d 253a 65bb
-0.26455998 -0.1248532 -0.14999694 -0.041312743 0.009849189 -0.38772756 -0.25041795 0.021534413
-0.27332056 -0.2649096 -0.21701944 -0.13996865 0.076131634 0.04295033 0.06732565 0.17820403
-0.24298026 -0.32778597 -0.32136875 0.13308834 -0.028625553 -0.0049627773 -0.079367615 -0.330911
-0.22391067 0.026765944 -0.33751386 -0.27486545 -0.06431034 0.1093264 -0.1927423 0.037708305
-0.33380464 -0.0014324031 -0.14746052 0.08967089 0.1133462 -0.22244842 -0.0095120175 0.06080143
-0.40486565 -0.35022536 -0.15569198 -0.04958561 0.07404936 0.14276029 -0.23269816 -0.19199365
0.01651466 0.07304193 0.08899163 -0.28228256 0.14549407 0.17111471 -0.22773722 -0.12971634
-0.15815443 -0.27829015 -0.21595575 -0.35061106 -0.10171378 0.0518037 0.008669931 0.009237864
0.10555116 -0.0046962663 0.03555855 -0.2570763 -0.3371414 -0.109829724 -0.097882204 -0.18374191
0.07105914 -0.023228846 -0.25987586 -0.25945646 -0.121860065 -0.32900044 0.030158574 -0.13218679
0.07197464 -0.3466122 -0.21058765 -0.0947534 -0.23015164 -0.17764258 -0.267781 0.029205963
-0.32861114 0.033416443 -0.16091712 -0.29043528 -0.04867248 -0.24979511 -0.21612005 -0.038594306
-0.12782423 -0.23496947 -0.23817627 0.0615341 -0.17300229 -0.025566708 -0.40164223 0.1486901
-0.121784374 -0.34935945 0.12786502 -0.20333785 -0.015678292 0.028171595 0.06643558 -0.07946455
-0.18986854 -0.006975228 -0.20669274 0.05498407 0.11712124 0.0022656978 -0.009772813 0.008217123
-0.17480697 -0.120425925 -0.033298552 0.10730256 -0.21209453 0.09062351 -0.035498437 0.22487912
-0.14606994 -0.041441884 -0.053736173 0.2968474 0.033773705 -0.0833577 -0.22087984 0.12754469
-0.16320808 0.009394302 0.14435303 -0.31234092 0.1591311 -0.10032847 -0.011308698 0.10257354
0.14750709 0.109690584 -0.0018609836 0.26740733 0.17405385 0.11212662 0.05147114 -0.035790283
-0.03777028 0.030920064 0.10052603 0.17796156 0.1642553 0.11593836 0.08442172 -0.039401215
0.015581836 0.04873295 0.07704837 -0.444374 -0.11778878 -0.2729316 -0.20632252 0.041738093
0.0673869 0.029675014 -0.09124294 -0.016013255 -0.21636273 -0.11068558 0.047294684 -0.13019681
-0.2952995 -0.1663786 -0.31357312 -0.25309023 -0.008879071 0.01900152 -0.33582813 0.01773254
-0.004758465 -0.105002 -0.22945583 -0.24213141 -0.014352214 0.04295832 -0.035158314 0.10569343
-0.12831724 -0.13793531 -0.27006653 -0.09670352 -0.006114768 0.032121222 -0.36429778 -0.30145168
-0.42728797 -0.22713535 -0.3438268 -0.22894618 0.0782932 -0.07638271 -0.019126223 0.088156536
0.05076603 0.03969809 -0.014602143 -0.14615452 0.010097244 -0.25402883 -0.17939423 -0.23436072
-0.49427116 -0.35879654 -0.033398945 -0.085228056 0.057420466 0.10797066 0.08989237 -0.028281385
-0.36691073 0.06738094 -0.32940915 -0.024303159 -0.17725372 -0.13394658 -0.24831186 -0.16237475
-0.17242795 -0.16705509 0.0070542763 -0.18466626 -0.154683 -0.24265309 -0.059668623 -0.26774374
0.15672313 -0.07212995 0.03457134 -0.42284304 0.033534963 -0.4454316 -0.266633 -0.17358793
-0.16233751 -0.19609642 -0.14663991 -0.327477 -0.06609655 -0.41943693 0.047635954 -0.0034977284

linear1.bias f4 [256]
00000000: 586c 9dbe dc67 95be e449 87be 791c 6ebe
00000010: e654 abbd d327 b2bd 3450 11be efcf dfbe
00000020: b9d7 97be 58e6 66bf c262 863d 2ccf 93be
00000030: b2ee 9ebe ac54 f5be 0b03 95be 8d26 3bbe
00000040: b314 bc3d b5a9 00bf 2117 57bd d2b0 01bf
00000050: e1d8 f73c 694e 85be d271 21be b4be b23d
00000060: 5147 79be 341d 3d3e 3d4a c1be c624 ccbd
00000070: 00ac d73c c1b7 e0bd 854b cbbe 3f6e 0b3e
00000080: da58 b7bd 13bc 23be 2d20 babe e554 cfbc
00000090: 9c00 3dbf f1ca 9f3c db81 8a3d bc35 74be
000000a0: 81fd fabe c204 cebe b5e1 fcbe c47b 5fbd
000000b0: c3ff 8a3d 4baf 48bd 69b6 2d3d ca9f 41bf
000000c0: 6d2b 06be 85a1 62be e2b1 a1be 4347 98be
000000d0: c3b5 293e 0532 85bd 0f32 debd 65c4 69be
000000e0: f3d4 9dbe f1bc 9ebe 0e94 34bf 8c32 0fbe
000000f0: df2f 023e f83c 9ebe 23df a4be 2d7f babe
00000100: ced7 b8be 4e5a 57be 4339 bbbe 9308 44be
00000110: 1a5a 06bf da9f 78bd 9808 dbbd ca15 f4be
00000120: f496 b3be 3106 afbd 4732 30be c690 b5be
00000130: 1c4f c5bd cd8c 5fbe 54d0 64be 236b afbe
00000140: 770d efbe 3b20 fa3d 82c5 4cbe beb9 c4be
00000150: d315 23be 869c 41be b941 f1be 5f52 183d
00000160: 5267 99be 54e4 8cbd 96f8 ffbe f89c ba3c
00000170: 9eb8 57be 4c17 02bf 3402 6fbe ce98 abbc
00000180: 383c dabe bdd6 6abe ca91 d3be f5db 4cbb
00000190: 7134 e2be 0328 9a3d 4dab 453e 8de5 a8be
000001a0: 1f99 14bf 8e29 853d 8893 85be 49cf 14be
000001b0: f4ca 63be 4922 dabe 9527 5ebe a1c5 6dbe
000001c0: de8b 5bbe 3cbf d1be 03db 0ebf 7f2b 03be
000001d0: edc3 96be 7c06 3ebe 42aa eebe 9d6e 65be
000001e0: 7ecc 39bf c4b5 23be c10c c6be cabf 02be
000001f0: 6913 07bf 623f aabd 845a 05be 24e3 52be
00000200: cc32 a3bd 64aa 06bf de6c 463d d8c3 0abf
00000210: 9035 5bbe c589 0ebe faa9 21be 9833 263e
00000220: 9908 60be 33d3 983c e84c 25be 376b c3be
00000230: f124 253e 5654 d4ba 79b2 cbbe d6c9 a1be
00000240: 0e5d 23bf ff0c 023c 07f5 10be 844f bfbd
00000250: 0d6b bfbe add8 d9bd 8e03 3cbd 195e 64be
00000260: f910 48bd 7e5a b43d a77e ddbe ba16 a2be
00000270: c6ff 27be 4f7f 50be b0f6 e9bd 3a82 b7bd
00000280: 47f1 aabe e876 d0be 4297 963d 4a7d ab3d
00000290: 6abe 42bf 251e 4fbe 0eb6 cabe bc69 40bf
000002a0: 3690 d4be a021 a9bd 0bb3 8cbe af03 2cbe
000002b0: b3f5 7abb dd67 3dbe 237f a5be c1be 0cbf
000002c0: 4cc0 b1be 95f8 4cbc 1083 5cbe 7646 38be
000002d0: ff0c b0bc 1384 ecbe 1c47 a8be f33c 11be
000002e0: 9155 62be 2a30 98be bc0a c43d 4c26 8cbe
000002f0: af26 adbe 2bfd 1ebe 7231 cebe 3891 9cbe
00000300: 384f c0bd 25f6 f6be 29a9 87be f605 83bd
00000310: e659 0fbe 6287 d2bd 13b8 4dbe 9074 0abd
00000320: 58f6 9ebd 8837 28be 656a 36be 58cd 27bc
00000330: 6722 e8be 3718 08be 630a c4be cd76 0f3e
00000340: c866 efbd 729e d2be 13ff afbc 7014 bbbd
00000350: 91c9 703d 42ae 64bd 8a0b fc3c d971 fdbe
00000360: f93d 0dbf 8c0a d9be 0dc5 02bf 5489 8ebe
00000370: b39c 62be 8512 31bd 102f 203e d87e 7cbe
00000380: 06d2 9abe eb47 bdbe 5051 6abe b6c5 273e
00000390: 94c0 b6be 854d 05bf 87ce 48bd e1b9 8dbe
000003a0: 8277 6dbe b5aa 353d 6444 87be 2405 eebe
000003b0: c5fa 69bd 2931 ecbd 276b 853b 670c 96be
000003c0: ad62 773d 03cd 08be 13d2 9bbe 82d2 b6be
000003d0: de36 b1bc bc8f 503c 74f8 7dbc 7935 d63c
000003e0: b269 8fbe 3bd2 4f3c adb6 00bd 79a7 1fbe
000003f0: a8fd 533e dac2 c2be ada4 c2be 2cdc c0be
-0.30746722 -0.291808 -0.26423562 -0.23253049 -0.083658025 -0.08699002 -0.14190751 -0.43713328
-0.2965677 -0.90195227 0.06561805 -0.28868997 -0.31041485 -0.47916162 -0.29103884 -0.18276425
0.091836356 -0.5025895 -0.05251229 -0.5066043 0.030254783 -0.26036385 -0.15766075 0.0872778
-0.24343611 0.18468171 -0.37751952 -0.099679515 0.026327133 -0.10972548 -0.39706054 0.13616274
-0.08952494 -0.15989713 -0.36352673 -0.025309036 -0.73829055 0.01950595 0.06763049 -0.23848623
-0.49021533 -0.40238005 -0.4939095 -0.05456139 0.06787064 -0.048995297 0.042410288 -0.75634444
-0.13102503 -0.22131927 -0.31581026 -0.29741868 0.16573243 -0.06503681 -0.10849392 -0.22828825
-0.3082653 -0.31003526 -0.70538414 -0.13984126 0.12713574 -0.3090589 -0.3220149 -0.36425152
-0.36102146 -0.21030542 -0.36567125 -0.19143896 -0.52481234 -0.06069932 -0.106949985 -0.47672874
-0.35076106 -0.08546103 -0.1720668 -0.35462016 -0.096342295 -0.21831055 -0.22345096 -0.34261426
-0.4668996 0.12213179 -0.19997218 -0.3842296 -0.15926294 -0.18907365 -0.47120455 0.03718793
-0.2996164 -0.06879488 -0.49994344 0.022779927 -0.2106652 -0.508168 -0.23340684 -0.020946886
-0.42624068 -0.22933479 -0.41322166 -0.0031259034 -0.44180635 0.07527163 0.19303627 -0.32987633
-0.58046144 0.065020666 -0.2608912 -0.14532198 -0.22245389 -0.42604282 -0.21694787 -0.2321992
-0.21440074 -0.40966213 -0.55802935 -0.12809561 -0.29446355 -0.18557161 -0.4661427 -0.22405477
-0.72577655 -0.15987307 -0.38681605 -0.12768474 -0.5276399 -0.083128706 -0.1302281 -0.2059446
-0.07968673 -0.52603745 0.048443668 -0.54205084 -0.21407151 -0.13919742 -0.15787497 0.16230619
-0.2187828 0.018655395 -0.16142619 -0.38167736 0.16127373 -0.001619945 -0.397846 -0.315993
-0.63813865 0.007937669 -0.1415597 -0.09341338 -0.3738636 -0.10637031 -0.045901828 -0.2230152
-0.04884431 0.088063225 -0.4326069 -0.31657964 -0.16406164 -0.20361064 -0.11424005 -0.089603856
-0.33387205 -0.40715718 0.07353069 0.08373506 -0.760718 -0.20226343 -0.39592022 -0.7516134
-0.41516274 -0.082583666 -0.2748035 -0.1679828 -0.003829342 -0.18496652 -0.3232356 -0.5497857
-0.34717023 -0.012510438 -0.21534371 -0.17995629 -0.021490572 -0.46194515 -0.32866752 -0.14183407
-0.22102953 -0.29724246 0.0957236 -0.27372968 -0.33818576 -0.15526263 -0.402721 -0.30579543
-0.0939011 -0.48234668 -0.26496246 -0.06397621 -0.13999137 -0.102797285 -0.2008975 -0.03380257
-0.0776183 -0.16427433 -0.17814024 -0.010241829 -0.45338747 -0.13290487 -0.38289174 0.14010163
-0.11689526 -0.4113651 -0.021483934 -0.091347575 0.05878598 -0.055830248 0.030767221 -0.4950092
-0.5517269 -0.4239086 -0.51081926 -0.27839148 -0.22130089 -0.043230552 0.15642953 -0.24657762
-0.3023836 -0.36968932 -0.22882581 0.16384014 -0.356938 -0.5207141 -0.049025085 -0.27680877
-0.2319012 0.044352252 -0.26419365 -0.46488297 -0.057123918 -0.11532814 0.0040716114 -0.29306337
0.06039684 -0.13359456 -0.3043371 -0.3570748 -0.021632608 0.012729581 -0.01550113 0.026148545
-0.28010327 0.0126844 -0.031424213 -0.1559123 0.20702231 -0.38039285 -0.38016263 -0.37667978

linear2.weight f4 [256, 256]
00000000: f568 b53c c0c7 85bd 6d26 423d 5bff aabd
00000010: ddc6 c43c 48ab 52bd 61df 8abc 7c0c 77bd
00000020: 5235 0dbd b557 f2bc 1baa 55bd 259f 1bbd
00000030: 53a7 29bc 6d41 43bd aac3 75bd 704c d9bc
00000040: 2a29 6abd dfda 1cbd 99df 98bd 2ec8 a63c
00000050: 0bcb 0b3b b613 0dbd bf7f 45bd 34a0 a5bc
00000060: 392b e2ba f36c 31bd 5ef6 25bd a557 5f3d
00000070: d136 0c3c 9d1e f23c d520 32bd 1e2b 40bd
00000080: fa4c 8d3c 41be 23bd 8e5c 80bd d65e 8abd
00000090: cc79 b9bd 0773 bbbc 4c30 93bd e24f 953b
000000a0: 8b26 8bbb 1920 283d 6767 ecbb 9245 2dbd
000000b0: 4dcf 213d 771b 82bc b879 0b3d 3883 0e3d
000000c0: 58e1 963b 42b0 9fbc 75de f83c 2132 0fbc
000000d0: 8bb5 99bc 64d1 033d 390a 583d ed85 ca3c
000000e0: 7875 c9bb a8aa 18bc a700 bcbc 3959 23bc
000000f0: 054b 923c dbc1 88bd 8b1e 863c 64a6 91bd
00000100: 40bb a9bc 24ec 18bc afb2 f23a 5585 583c
00000110: e7f9 fa3c e55b b5bd c464 5a3d 1b64 153d
00000120: 3285 193c 9e72 e93c 920d 13bb a740 fabb
00000130: 10e6 633c 3505 b33c 2271 9ebd d3fd 48bd
00000140: d91b 50bb f356 463d 5203 01bd eaff 5abd
00000150: 2fa6 87bc 0dee 60bc e247 323d 9396 223d
00000160: d414 3dbc 2123 39bc f59e 133a e987 6abd
00000170: 5270 c13c 8916 4bbc 6401 b93c dde6 b5bc
00000180: bb9d c03c cb77 d73c e953 b83c b699 66bc
00000190: 87ad 82bd f25e 1abd c5d2 83bd 4837 ff3c
000001a0: 0cb8 6abd e83b e7bc 6266 7a3c d8a0 25bd
000001b0: 0355 c63c 1987 973b ca8b 8ebc 1755 64bd
000001c0: 0dab 1dbd a287 323c eff5 72bb 4f9b 8cbd
000001d0: 8f3f 89bd 4622 963c 7584 1e3c 3eaf 323d
000001e0: 29a5 d13c 88bd 223c f223 1d3c 06b2 0dbd
000001f0: b6b5 16bd b673 78bd 9220 d7bc bbfc b13c
00000200: 5f4c debc 33ea 903b ccef 603b 1041 d3b8
00000210: 67be 64bd 658e 9bbc 4493 32bd cdaa 29bd
00000220: 90a1 a0bc 6898 84bc 577b 3bbd 340e b73c
00000230: 5443 923c e9db 5bbc adab 43bd b088 3cbd
00000240: 9a60 55bd db26 c5bc 7507 043d 025a 303c
00000250: d1cf 8ebd 5833 0e3d ebcb 3abb 6767 063c
00000260: b02a 08bc dde5 b1bc 0403 c23c 2a82 3abd
00000270: 5405 cebc 821a 2e3d 1b35 8ebc 7711 123d
00000280: e05e b0bd dd54 8b3c ff5b 633c b4be 77bd
00000290: 1924 0abd 878e 4abd 5997 47bd 4154 5cbc
000002a0: 46f0 02b8 0a1d 90bd 94d0 5bbd 351e eabc
000002b0: c0fd bfbc b257 e3bc 6184 b33c 71fe afbc
000002c0: fa3a 64bd ab0b 90bd 90d6 5abb 42c2 163c
000002d0: 4c03 99bd 0969 29bd 0303 af3c cf43 4f3c
000002e0: 7ad4 5bbd c38e 3a3d d2db 7bbd bed4 b43c
000002f0: 83ab 813c bee8 563c 92ff 84bc 5756 493d
00000300: 6542 1fbd db92 82bb 99ba 4bbd 9f12 07bd
00000310: b85d ecbc d498 3a3d 888a 0fbd b84c 14bb
00000320: 51da 363d 9fbe 023b b902 9bbc 1bc0 27bc
00000330: f800 893c 688c 8c3c 0753 4d3c 285a fa3c
00000340: 3d7a 1dbd 2f50 cbbc 3a8b b33c ed01 35bd
00000350: 0882 79bd 7fe9 42bc d356 cdbc 423b 88bd
00000360: b27a 8bbd d727 8cbd d78b 363b b1dc 963c
00000370: 976d 233a b9d7 60bd e764 b8bc 0c76 08bd
00000380: 1a25 6abd 7854 a53b 33c6 b0bc 1834 23bd
00000390: 5826 533d cdc8 0dbc 5005 693b 576e ad3c
000003a0: 8339 823d 16a5 8dbd f252 cdbc 32ab 4dbd
000003b0: 60a2 3cbd 4584 9abd 413e 28bd d18f b9bc
000003c0: 9626 02bd a3fd e03a 99b9 f239 fe45 44bd
000003d0: 078f d3bc b1c4 413b 5cb5 0cbd fc1a 1ebd
000003e0: 0683 58ba d539 ef3c e820 2a3d 53d3 46bc
000003f0: 8729 83bb 0171 013d 410a ebbc 064e d43b
0.022144774 -0.0653224 0.047399927 -0.083494864 0.024020607 -0.051432878 -0.016952218 -0.06031464
-0.03447468 -0.029582838 -0.05216418 -0.03799357 -0.010354835 -0.047669817 -0.060001053 -0.026525706
-0.057168163 -0.03829467 -0.07464523 0.020359125 0.002133074 -0.034442626 -0.04821753 -0.020217992
-0.0017255313 -0.043316793 -0.040518157 0.054526944 0.008557991 0.029555613 -0.043488342 -0.04691612
0.01724862 -0.039976362 -0.062676534 -0.0675637 -0.09056434 -0.022881998 -0.07186946 0.004556642
-0.004246538 0.041046236 -0.007214475 -0.042302676 0.039504338 -0.015882237 0.034051627 0.03479311
0.0046045 -0.019493226 0.030379513 -0.008739979 -0.018763324 0.032182112 0.052744124 0.024722064
-0.0061480366 -0.009318031 -0.02294953 -0.009970003 0.017858038 -0.066776 0.016371986 -0.071118146
-0.02071917 -0.009333644 0.0018516387 0.013215383 0.03063674 -0.08855418 0.053318754 0.03647242
0.009370135 0.028497037 -0.0022438508 -0.0076371017 0.013909832 0.021853069 -0.07736422 -0.04907019
-0.003175488 0.048422765 -0.031497307 -0.053466715 -0.016558735 -0.013728631 0.043525584 0.03969438
-0.01154061 -0.011299879 0.00056312914 -0.05725852 0.023613129 -0.0123955095 0.02258367 -0.02220481
0.023512712 0.026302239 0.022500949 -0.0140747335 -0.06380754 -0.037688203 -0.064366855 0.03115429
-0.057304427 -0.028226808 0.015283199 -0.040436596 0.024210459 0.004624259 -0.017400641 -0.05574521
-0.038493205 0.010896595 -0.0037072857 -0.0686556 -0.06701576 0.01832689 0.009675135 0.043624155
0.02559145 0.009932883 0.00959109 -0.034593605 -0.036794387 -0.060657226 -0.026260648 0.021726957
-0.027136026 0.00442245 0.0034322618 -0.00010073383 -0.055845644 -0.018988797 -0.043597475 -0.041422654
-0.019608289 -0.016185954 -0.045771923 0.02234564 0.01785437 -0.01341913 -0.047771145 -0.046028793
-0.05209408 -0.02406638 0.032233674 0.010763647 -0.069732316 0.034716934 -0.0028502892 0.008203364
-0.008310959 -0.021716053 0.023683079 -0.04553429 -0.025149025 0.04250575 -0.017359307 0.035661187
-0.08611846 0.01700824 0.013876914 -0.060484603 -0.03372583 -0.04945233 -0.04872832 -0.013447822
-3.1218187e-05 -0.07036789 -0.053665712 -0.028578857 -0.023436427 -0.027751777 0.02191371 -0.021483632
-0.055720307 -0.070334755 -0.003339205 0.009201588 -0.07471332 -0.041359935 0.02136374 0.012650444
-0.05366943 0.045546304 -0.061488934 0.0220741 0.015828853 0.0131170135 -0.016235147 0.049154606
-0.038881678 -0.0039847917 -0.0497385 -0.032976743 -0.028853282 0.045555905 -0.035044223 -0.0022628736
0.044641796 0.0019950045 -0.018922197 -0.010238673 0.016724095 0.017156795 0.012532002 0.030560568
-0.038446654 -0.024818508 0.021916974 -0.04419129 -0.060915023 -0.01189649 -0.025065815 -0.066519275
-0.06810512 -0.06843536 0.0027854347 0.01841578 0.00062342867 -0.05489323 -0.022509051 -0.033315703
-0.05716429 0.00504547 -0.021578884 -0.039844602 0.05155024 -0.008653832 0.0035556145 0.021170778
0.06358626 -0.06916253 -0.025063965 -0.050212093 -0.04605329 -0.0754476 -0.041074995 -0.022651585
-0.03177508 0.0017165433 0.00046296118 -0.047918312 -0.025825037 0.00295667 -0.034352645 -0.038599953
-0.000825927 0.029202381 0.041535288 -0.012135345 -0.004002753 0.03160191 -0.028691413 0.0064790277

linear2.bias f4 [256]
00000000: f629 22bd 667d 79bc 18f4 083c 0190 c8bd
00000010: 248d 75bd 39ca 3bbd 9501 a2bd 5924 693b
00000020: 1ade 1bbd 3b6e ecbd 000e 04bd 7877 0bbd
00000030: f30f c2bb 42c6 b1bd dbaf 90bd f426 fcbc
00000040: c3e0 03bd 9c78 09bd 7312 93bb 35c1 a6b9
00000050: a9c6 bebd f9c4 193e 0f3d 06bd f4f0 123e
00000060: 6c9b e6bc 2617 05ba fa58 42bd f9e9 02bd
00000070: 5574 c8bd 395c 9abd a16e a4bc 5e3c 33bd
00000080: 4e05 333e b7af 3c3e f98f 0bbd ca39 adbd
00000090: aa1a c0bd 3935 0bbd 8e61 adbb 3d0c 9ebd
000000a0: e7dc 07bd 4a09 02bd 1b66 46bd fd72 85bd
000000b0: 7cb2 3cbd 5cf8 8a3e 3711 213d 88e3 53bd
000000c0: bba1 acbc a7b2 d7bc 5e61 b1bd 8507 e2bd
000000d0: e91f a4bd 32d7 d8bd c2a0 1bbd 90cc 6d3a
000000e0: dafe 78bd 8642 30bd c0b2 f2bd 500f 32bd
000000f0: 13b6 8abd 6991 9dbc dd5b bc3b 3101 56bd
00000100: 7c71 82bd 0add a6bc 122a 55bd 5fc4 d63d
00000110: 714c 6dbd fbbf bbbd b86a 85bd 5a62 e7bc
00000120: 76e8 94bc beed 0fbd 0714 9cbd 6d47 37bc
00000130: 55ea 54bd 158f b2bd 74c9 c3bc 7904 b3bd
00000140: 616e ccbd 20da 1abc d8fd cabc 469a 30bd
00000150: 9667 9fbd 7d34 e3bc 7a20 d2bc 6c38 88bc
00000160: 2b68 12bd 5332 f6bc 3ae5 47bd 39a0 6bbd
00000170: 1c83 d9bd c05b 43bd c7c6 03bc eb47 6fbb
00000180: 42ba 51bc ff09 32bd 3f3e 1bbd 94fa 3abd
00000190: 231e cdbd 8e31 4f3e 1ff4 11be 46d0 24bd
000001a0: 8410 94bd c734 55bd 3820 47bd 9406 47bd
000001b0: 7494 cbbd 257d fdbb ba7f f5bc 880a 843c
000001c0: d16d dcbc 6cf0 a4b9 5378 b7bc 776f d9bd
000001d0: 954e 6cbd 653c a0bd 13ea 9ebd 6535 423e
000001e0: 33b8 753e 1c69 78bd 1dde ddbc 98a0 93bc
000001f0: 347c c4bd 3e3b 8ebd 08b3 0ebd b401 3fbd
00000200: 2c8e 7fbc 7095 8dbd 44a2 0cbd ac0f bebd
00000210: 608c 05be d479 723c 666d 7639 3838 0a3c
00000220: 1594 2ebd 080a 71bd 264c 33bd 206a 97bd
00000230: c884 2c3e 245f 97bd 3cb7 913c b95b c3bd
00000240: 7503 c9bc 545f 5dbd bdb4 98bd e2ed ccbd
00000250: 6458 cbbd 3b5d b3bc 5b8a bdbd f76d c0bc
00000260: b889 a5bc 29a4 93bd 00b2 c5bd 0ab0 5ebd
00000270: 9138 2cbd d739 3ebd c184 2dbd 57f3 a4bd
00000280: 922c 5fbd 96d6 6abd a44a fbbb df8b ccbd
00000290: f5fd 72bd e47d 96bd 5743 40bd 6d13 a9bc
000002a0: 212f 22bd 8fc8 68bd 294a a6bc 85ff a6bd
000002b0: 145c 75bd 9322 7f3d aefb a4bd 60fb 243c
000002c0: d039 c5bd dbb2 68bd 96b1 a2bd cd70 99bc
000002d0: c6ea bfbd e461 d13c 2742 9ebd 1327 cabd
000002e0: 23f4 fe3d 355d 90bc 1fc0 93bd 5d0b 12bd
000002f0: 1e72 fdbc a30c 96bd a69d 08bf 24de 33bd
00000300: fdab d0bd b8e4 65bd d530 9b3d e50f 1bbd
00000310: fef1 94bd 1c6e 51bd a3c4 cebb f2c2 863d
00000320: b55e 4fbd 9d71 83bd b253 90bc 8b8f 88bd
00000330: 0195 9bbd e7ca 98bd f8c4 b9bc efa9 953d
00000340: 1b60 18bd da43 aebd ace8 87bd be57 92bd
00000350: 7ef0 b5bd 6654 cfbd d6c3 c2ba 40ca cfbc
00000360: 9707 053d 6e58 59bd 781a c6bd 14e5 f0bb
00000370: f640 4ebd 90fb 9ebd 43bc 5e3c ce4a 353c
00000380: 0bc9 553e 60f2 f43c d5c9 3d3e 9da9 d1bd
00000390: af1b 64bd bf7a 963c eae4 8cbc 45fa 3ebd
000003a0: a6b0 9cbd 5169 99bc 6933 753b 2c51 0cbd
000003b0: a491 993c 66b0 6cbd 672f 32bc e476 a3bd
000003c0: 9b7f 97bd d489 94bd 3e64 a6bd eee1 8ebd
000003d0: 5fde 8bbd a077 a4bd 6bd5 87bc 9cff d0bd
000003e0: ae1b e7bc 2e97 82bd 4672 3f3e 1b53 02be
000003f0: 1731 8bbd a35f 8cbd 49e6 c9bc edb4 d63c
-0.0395908 -0.015227651 0.008358978 -0.097930916 -0.059949055 -0.04584715 -0.07910458 0.0035574643
-0.03805361 -0.11544462 -0.032239914 -0.03404948 -0.0059223115 -0.08680393 -0.07064792 -0.030780293
-0.03219677 -0.033562288 -0.0044882833 -0.00031805938 -0.09315235 0.15016545 -0.032773074 0.14349729
-0.028150283 -0.0005076997 -0.047448136 -0.031961415 -0.097878136 -0.07537121 -0.020072283 -0.043758743
0.17482492 0.18426405 -0.03407285 -0.08458288 -0.09380086 -0.033986304 -0.0052911704 -0.07717178
-0.033169653 -0.03174714 -0.04843722 -0.06516073 -0.046068653 0.27142608 0.039323058 -0.051730663
-0.021073213 -0.026330305 -0.086611494 -0.110365905 -0.08013899 -0.1058792 -0.037995107 0.00090713147
-0.06078992 -0.04303219 -0.118505 -0.043471634 -0.06773009 -0.019234376 0.0057482556 -0.05224723
-0.06369302 -0.020369072 -0.052042075 0.104866736 -0.05793423 -0.09167477 -0.065144956 -0.02824514
-0.018177252 -0.035138838 -0.076210074 -0.011186463 -0.05198129 -0.08718697 -0.023899771 -0.087410875
-0.099819906 -0.009451419 -0.024779245 -0.043115877 -0.07783429 -0.02773499 -0.025650252 -0.016628467
-0.035743874 -0.030053293 -0.04880259 -0.057525847 -0.1062071 -0.04769492 -0.008042998 -0.0036511372
-0.012800755 -0.043466564 -0.03790116 -0.045649126 -0.10015514 0.20233747 -0.14253281 -0.040237688
-0.072297126 -0.052052286 -0.04861471 -0.048590258 -0.099404246 -0.0077358657 -0.029968131 0.016118303
-0.026907833 -0.00031459646 -0.022396242 -0.10616963 -0.05769213 -0.07824019 -0.0775949 0.18965681
0.23996048 -0.060647115 -0.02708345 -0.018020913 -0.09594002 -0.06944893 -0.034838706 -0.046632484
-0.015597861 -0.069132686 -0.034334436 -0.09280333 -0.1304183 0.014799554 0.00023501142 0.008436255
-0.04262169 -0.058847457 -0.043773793 -0.073932886 0.16847527 -0.073911935 0.017787568 -0.09538979
-0.024537781 -0.05404599 -0.07456348 -0.1000631 -0.099289685 -0.021895042 -0.09254905 -0.023489935
-0.020207271 -0.072090454 -0.096530914 -0.054367103 -0.042046133 -0.04644188 -0.042362932 -0.08054226
-0.054485865 -0.05733355 -0.00766881 -0.09987616 -0.059324224 -0.073482305 -0.04693922 -0.020639146
-0.039595727 -0.056831893 -0.020299034 -0.08154205 -0.059902266 0.062288832 -0.080558166 0.010069698
-0.096301675 -0.056811195 -0.07944028 -0.018730545 -0.09370951 0.025559373 -0.07727461 -0.09870734
0.12448909 -0.01762257 -0.072143786 -0.035655368 -0.030938204 -0.07326629 -0.5336555 -0.04391302
-0.10189054 -0.056126326 0.07577673 -0.037856955 -0.07272719 -0.0511304 -0.006310062 0.065801516
-0.05062743 -0.064181544 -0.017618034 -0.06668004 -0.075967796 -0.074605756 -0.02267693 0.07307803
-0.03720103 -0.085090354 -0.066361755 -0.07145642 -0.08883761 -0.101235196 -0.0014859389 -0.025364995
0.03247794 -0.05306285 -0.09673017 -0.007351527 -0.05035492 -0.077628255 0.01359469 0.011065198
0.20877473 0.02990073 0.18534024 -0.10237429 -0.055690464 0.018369077 -0.017198998 -0.046625394
-0.076508805 -0.018726977 0.0037414676 -0.0342571 0.018746205 -0.057785414 -0.010875559 -0.07981661
-0.07397386 -0.07252851 -0.081245884 -0.069766864 -0.06829523 -0.08030629 -0.016581258 -0.102050036
-0.02821144 -0.063764915 0.18695936 -0.12727015 -0.067964725 -0.06854179 -0.024645941 0.026209319

linear3.weight f4 [4, 256]
00000000: f77f f0b9 478f d13c 7a49 1fbc a85a 7ebc
00000010: 21b1 d8bc 7003 c53a 0792 9f3c 4ef3 d3bc
00000020: ea74 e4bc ffd9 543d bfdd 503d 9a14 ffbc
00000030: b2c8 0f3b 7df6 d73c df6a 8bbb 74cb e83c
00000040: 04f1 ec3c f177 05bd e533 edbc 8320 0b3c
00000050: 9fda 2f3d 9dbc 2d3d 0b75 8f3d ba2e 4f3d
00000060: be62 14bd 89f7 cdbc 9b2e e7bc 22e9 533d
00000070: 2a42 f5bc ee92 0abc 59c1 83bc b43a e9bc
00000080: f8e0 323d ad18 eb3d 9b0d bcbc ae2d b2bc
00000090: ca98 f43c 2444 0d3c e636 cdbc 7ae7 6d3c
000000a0: c4ee 8a3c 39e6 a0bc 503d 7fbd eaad 8dbc
000000b0: 3395 9abb c5e2 223d 43f1 26bc 247e a1bc
000000c0: 359c 033d 4cc1 0bbd 720c f7bc 1b02 193c
000000d0: f101 bd3b ac33 a63b ed4b 0dbb fb00 d03c
000000e0: bc21 68bd ef07 94bb 57c6 593b c430 82bb
000000f0: 20a0 e4bc 97e1 3bba 7668 8bbc eddf 2fbd
00000100: bd84 07bd 323e eabb f46c 51bd 90c0 a93d
00000110: 792d 7bbb 82bc 12bd 9e67 9a3d 4530 f83a
00000120: 4144 8d3c 471e aa3b 89ec 74bb 6c12 7bbc
00000130: eab4 44bc a819 1d3d 84fd 9c3c 3a8e 063d
00000140: db6e d6bc 9ebb 8a3c e559 e93c da8f 61bd
00000150: 459f fd3c ac9a c4bb 0ac9 813c 57b9 ce3b
00000160: b265 07bd a8d7 d7bb 2719 5abc 4fdf 89bc
00000170: 9877 053d 72e3 4b3c edea bb3c 67c0 733c
00000180: 2b1b 13bd ff66 293d 645a 113d 91c5 033c
00000190: 02a6 a43c 5810 813d 79c9 1cbd 02c1 573a
000001a0: c98b 58bd 64da 323c ab8d 7abc 6022 65bc
000001b0: 420c c23c 86b9 3aba 081b 20bd 048d f13c
000001c0: 9e92 f63c ad5e a2bc 3f39 cab9 500f 043d
000001d0: 23f3 323d 9dff d5ba f23d 623b 90c9 433d
000001e0: b834 3c3d 0869 1a3d 9d98 f7bb 0630 073d
000001f0: e792 17bd 3d1f b7bb ec9a a0bc c24e dfbc
00000200: a03e 9bbc 0ea8 1e3b 84ae 40bb ea6f 14bd
00000210: dda1 81bc 31f3 6d3c 03da a4bb c1d6 9fbc
00000220: 4edd 08bc 923e a1bc 2fe2 8bbc 20d3 113d
00000230: 7bdd 4f3b 2db2 cc3a f5c7 b33c cb46 d63c
00000240: 65f3 a83c 28a4 083d f507 243b dfac 8f3a
00000250: 1b60 173d de5e 02bd 7db4 bf3c 9f9a dfbc
00000260: 631b fb3b 1b54 0a3d ac7d 1bbc b517 803c
00000270: 7c63 60bc 0317 643b a72e 0b3c e4bd 9d39
00000280: 2c3d 90bb 8c2d e13c d916 05bc 0a50 85bb
00000290: 97b4 743d 8b24 8fbc 61bc 8abc 60f0 683d
000002a0: a404 41bc 8a1a 9abc f453 d3bc caee 0b3d
000002b0: 1d9c 69ba e283 00bc 3ece b53c 6423 093b
000002c0: 02ba fb3c 2b03 493d 4772 343c 69e1 ffbc
000002d0: 2553 913c abb0 7abc 0311 f9bc 99b1 073c
000002e0: 731e 693d fbdd 893c d1b3 4c3d 9ddf 0dbd
000002f0: c664 4ebc a144 183d 5e9d e0bd 63ac 92bc
00000300: bdd4 b23c c021 56bd af37 183d e78a 99bc
00000310: aeb3 1dbd 2281 11bd d55f e93c cbe5 683c
00000320: d250 62bb 87b2 333c 8ea5 e33c 4509 4d3d
00000330: 1e41 3b3c 1363 a5bc 5584 aebc d41b c43c
00000340: 699b c5bc eb2b a6bc 24e1 55bc fd09 0dbd
00000350: fb22 ecbb a38f 2abd c270 383c d4a8 74bd
00000360: 5512 56bc fab4 5abc 6009 d5bc 7f84 043d
00000370: a600 0b3d 9a08 c13c 22bb 55bb 640b af3b
00000380: 5a74 4f3c 3690 263c 3dec aabc 7f91 56bd
00000390: 1719 dfb9 f640 1dbc f1cd 98bd b753 7f3c
000003a0: 5da0 4bbc 9749 7c3c 8e91 93bc 65a6 05bd
000003b0: 0dff ff3c 6e4e dcbc 2fe3 d2bc 4eed e2bb
000003c0: 7fdb 41bc 95b4 e4bc 2bcc ecbc ab8d 81bd
000003d0: 20a2 143d 69f5 02bd 1df1 a13b 2af5 21bc
000003e0: 6102 ae3c 3744 8abc 6a00 623c 7bb7 07bd
000003f0: 6014 aa3c ebe7 4d3a 0a93 6cbc 4ed8 bf3b
-0.00045871708 0.025581015 -0.009722108 -0.015524544 -0.02645165 0.0015030932 0.019478811 -0.025872853
-0.02788778 0.05196571 0.050992724 -0.031137753 0.0021939692 0.026362652 -0.0042546834 0.028417327
0.028923519 -0.03258509 -0.02895541 0.008491638 0.042933103 0.042416204 0.07004746 0.05058167
-0.03622698 -0.025142448 -0.028220465 0.051736005 -0.029938776 -0.008457882 -0.016083406 -0.028470375
0.04367158 0.11479316 -0.022955706 -0.021750297 0.029858012 0.008622203 -0.025050592 0.01452052
0.016959555 -0.019641029 -0.06231433 -0.017294843 -0.004717493 0.039767046 -0.010189357 -0.019713469
0.032131393 -0.03411989 -0.030157302 0.009338881 0.0057680537 0.0050720777 -0.0021560148 0.025391093
-0.056672797 -0.0045175473 0.0033229792 -0.0039730985 -0.027908385 -0.00071670994 -0.017017584 -0.04293816
-0.033085573 -0.0071485275 -0.051129296 0.082886815 -0.0038326664 -0.035824306 0.07539295 0.0018935284
0.01724446 0.0051915976 -0.0037372431 -0.015324216 -0.012006024 0.038354546 0.019163854 0.03285048
-0.026175907 0.016935166 0.028485248 -0.05506883 0.030959735 -0.0059998836 0.015842933 0.0063087153
-0.03305597 -0.0065869875 -0.013311661 -0.016830115 0.032584757 0.012444364 0.02293917 0.014877415
-0.03591458 0.04135799 0.035486594 0.008042709 0.02009869 0.063019454 -0.038278077 0.00082303595
-0.052867685 0.010916326 -0.015292565 -0.013985246 0.023687486 -0.0007122982 -0.03908828 0.029486187
0.03009921 -0.019820536 -0.00038571094 0.032241166 0.043688904 -0.0016326789 0.0034521786 0.047799647
0.045948714 0.03769782 -0.0075560347 0.033004783 -0.03700533 -0.0055884407 -0.019605123 -0.027259234
-0.01895076 0.0024209055 -0.0029400894 -0.036239542 -0.015824253 0.014523313 -0.005030872 -0.019511582
-0.008353544 -0.019683156 -0.017075626 0.035601735 0.0031717706 0.0015617065 0.021945933 0.026156804
0.020623872 0.033359677 0.0025029157 0.0010961554 0.036956888 -0.031828754 0.023401493 -0.027295409
0.007663177 0.033771615 -0.009490412 0.015636304 -0.013695594 0.0034803755 0.0084950095 0.00030086853
-0.0044018235 0.027487539 -0.008123123 -0.0040683793 0.059742536 -0.01747348 -0.01693553 0.056869864
-0.011780892 -0.018811483 -0.025796868 0.034163274 -0.00089115073 -0.007843943 0.02219307 0.0020925635
0.030728344 0.049075287 0.011013574 -0.031235414 0.017739842 -0.01530091 -0.03040362 0.008282089
0.056913804 0.016829481 0.049976174 -0.034637082 -0.012597268 0.037174825 -0.109675154 -0.017904466
0.021829957 -0.05227828 0.03716248 -0.018742992 -0.038501434 -0.03552354 0.02848808 0.014214943
-0.0034533036 0.010967857 0.027788904 0.05005767 0.011429099 -0.020188844 -0.021303335 0.02393905
-0.024121957 -0.020284614 -0.013054166 -0.034433354 -0.0072063184 -0.04164089 0.011257352 -0.05973132
-0.013065894 -0.013348812 -0.026005447 0.03235292 0.033936165 0.023563672 -0.003261276 0.005341934
0.012662018 0.0101662185 -0.0208646 -0.05238485 -0.00042552568 -0.009598007 -0.07461155 0.015583924
-0.01242837 0.015398405 -0.018013742 -0.03262939 0.031249547 -0.026892867 -0.025743095 -0.0069252616
-0.011832117 -0.02791814 -0.028905949 -0.06325849 0.036287427 -0.031972323 0.004942073 -0.009885112
0.021241369 -0.01687823 0.013794044 -0.033133965 0.020761669 0.0007854688 -0.014439354 0.005854643

linear3.bias f4 [4]
00000000: 451c 61be f0f9 87be d3a4 4dbe 4609 7ebe
-0.2198344 -0.26557875 -0.20082407 -0.24808225
