2048_AI/model/model.pth (torch, 287028 bytes, 6 tensors)

linear1.weight f4 [256, 16]
0	0xbdef8d39	-0.11696858
1	0xbedca0f9	-0.43091562
2	0xbdab6bf9	-0.083702035
3	0x3dba3861	0.09092785
4	0xbed3fc34	-0.41403353
5	0xbedda779	-0.43291834
6	0xbdf05c55	-0.11736361
7	0xbd20fccf	-0.039303597
8	0xbeb041c1	-0.34425166
9	0xbe1ae7a5	-0.15127428
10	0xbe220a0e	-0.15824148
11	0xbe2a0964	-0.16605145
12	0xbeea0e80	-0.45714188
13	0xbe6c40f8	-0.23071659
14	0xbd77688c	-0.060402438
15	0x3d0985af	0.033574756
16	0xbe4bc6c6	-0.19900045
17	0x3d99d97e	0.075121865
18	0xbe8d1215	-0.27552858
19	0xbe6270d4	-0.22113353
20	0xbd8dcbd0	-0.0692364
21	0xbcdeed9e	-0.027212914
22	0xbec36022	-0.3815928
23	0xbbac3924	-0.005255835
24	0xbe82f6b2	-0.2557884
25	0xbdddf927	-0.10838538
26	0x3bea0404	0.007141592
27	0xbe749b13	-0.23887281
28	0xbec753d2	-0.38931137
29	0xbd87af64	-0.0662525
30	0xbe332af9	-0.17496862
31	0xbe88fe1b	-0.26756367
32	0xbec1c4e7	-0.37845537
33	0x3d3836df	0.044974204
34	0xbeb5fc21	-0.35543922
35	0xbe729f22	-0.23693517
36	0xbe9cfbd8	-0.30660892
37	0xbe84302e	-0.25818008
38	0xbd0cdc1c	-0.0343896
39	0xbea0ea47	-0.3142874
40	0xbdad6bd0	-0.08467829
41	0xbe05fb1f	-0.13084076
42	0xbe8928de	-0.26788992
43	0xbe17c60d	-0.14821644
44	0xbed79901	-0.4210892
45	0xbeb616fb	-0.35564408
46	0xbe62ca35	-0.22147448
47	0xbd11a5fd	-0.03555869
48	0x3da1302c	0.07870516
49	0x3e0238aa	0.12716928
50	0xbe92bc9c	-0.28659523
51	0xbf22a623	-0.63534755
52	0xbd2cdc4a	-0.04220227
53	0x3c42a47b	0.0118800355
54	0xbde666b2	-0.11250056
55	0x3db45d34	0.088068396
56	0x3c836365	0.016038606
57	0xbbd28998	-0.006425094
58	0xbe156a2d	-0.14591284
59	0x3db7fd6f	0.089838855
60	0xbe3f39e6	-0.1867443
61	0xbe8be481	-0.27322772
62	0x3e4847c3	0.19558625
63	0xbccc527c	-0.024941675
64	0x3cefd2e6	0.029275369
65	0xbd78a406	-0.0607033
66	0xbe68646b	-0.22694556
67	0xbebd3b71	-0.36959413
68	0xbeda0e50	-0.42589045
69	0x3b741ce9	0.0037248677
70	0xbe063d3a	-0.13109294
71	0xbe7f6036	-0.24939045
72	0xbe75eb8e	-0.24015638
73	0xbeaed920	-0.34150028
74	0xbec12f97	-0.3773162
75	0xbc481faf	-0.012214585
76	0xbefb00ea	-0.49024135
77	0xbec44a58	-0.3833797
78	0xbeaf0cb3	-0.34189376
79	0xbe8a846b	-0.27054152
80	0x3a8e7ad4	0.0010870346
81	0xbe001e5a	-0.12511578
82	0xbe8b1327	-0.2716305
83	0xbd680d04	-0.056653038
84	0xbbf20a16	-0.0073864562
85	0xbeab85c4	-0.33500493
86	0xbeb58691	-0.3545423
87	0xbdc1f26a	-0.09470065
88	0xbd1af6ef	-0.03783315
89	0xbe1391b5	-0.14411052
90	0xbe0e7683	-0.13912396
91	0xbd6210a3	-0.055191647
92	0x3d19e6c4	0.03757359
93	0xbed733a5	-0.4203159
94	0xbec05140	-0.3756199
95	0xbd7e6022	-0.0621034
96	0xbe087585	-0.1332608
97	0x3d8d3f0b	0.0689679
98	0xbe0ebbbf	-0.13938807
99	0xbe530662	-0.20607904
100	0xbc7d95c5	-0.015477602
101	0xbd0f3ba3	-0.034968983
102	0xbd9cfbeb	-0.07665237
103	0x3e1aced2	0.15117958
104	0xbd9357e2	-0.07194497
105	0xbe46acf3	-0.19401912
106	0xbe6c6252	-0.23084381
107	0x3dc48604	0.09595874
108	0xbed74110	-0.42041826
109	0xbe71a30d	-0.23597355
110	0xbe0b9c95	-0.1363395
111	0xbef8dbfe	-0.4860534
112	0x3d2e7c71	0.042599145
113	0xbeb0a4fa	-0.34500867
114	0xbe1fbb74	-0.15598851
115	0xbe828923	-0.25495252
116	0xbe163bcc	-0.14671248
117	0xbef34f23	-0.47521314
118	0xbeb1b77f	-0.3471031
119	0xbe1aa1d2	-0.15100792
120	0xbd91d93a	-0.07121511
121	0xbe9d3506	-0.30704516
122	0xbd9ebd78	-0.07750982
123	0xbd4c8f1c	-0.049941167
124	0xbe5b4c9c	-0.21415943
125	0xbedc9f65	-0.43090358
126	0xbea2bebc	-0.31786144
127	0x3d35e3d6	0.044406734
128	0x3c260da5	0.010135089
129	0x3d5c00e0	0.053711772
130	0xbe67f717	-0.22652851
131	0xbd83e1e8	-0.064395726
132	0xbdca4afd	-0.09877584
133	0xbd8b02d3	-0.06787648
134	0xbe7f9f49	-0.24963106
135	0xbd249fd5	-0.04019149
136	0xbe8cc587	-0.2749445
137	0xbed352ac	-0.4127401
138	0x3df4bf09	0.119504996
139	0xbd23d145	-0.039994497
140	0xbeab6792	-0.33477455
141	0xbd94d941	-0.072680004
142	0xbe597cae	-0.21238968
143	0x3df26a67	0.11836701
144	0xbe11ca6a	-0.14237371
145	0xbe74ca43	-0.23905282
146	0x3ba05091	0.0048924168
147	0xbe013260	-0.12616873
148	0xbd446b6e	-0.047954015
149	0xbe40516d	-0.18781061
150	0xbe3b7307	-0.18305598
151	0xbdc4bc53	-0.096062325
152	0xbdd86f11	-0.10568059
153	0xbcf2505b	-0.029579332
154	0xbe5b7d54	-0.21434528
155	0xbe51560f	-0.20442985
156	0xbe956d6a	-0.2918504
157	0xbece6930	-0.40314627
158	0x3d6ed366	0.058307074
159	0xbebee6c5	-0.37285438
160	0xbe8b8b92	-0.2725492
161	0xbec1ea0d	-0.3787388
162	0x3e12115c	0.14264435
163	0xbdb4af57	-0.08822506
164	0xbe1f11bc	-0.15534109
165	0xbecbc34d	-0.3979744
166	0xbd3d344f	-0.046192463
167	0xbe8ff803	-0.28118905
168	0xbc0d9ca7	-0.008643306
169	0x3d804df2	0.06264867
170	0xbe2205d1	-0.15822531
171	0xbeac0a49	-0.33601597
172	0xbea0b5ab	-0.31388602
173	0x3df9712e	0.121797904
174	0xbd8b7a05	-0.06810383
175	0xbecfbaf1	-0.40572312
176	0xbe21571d	-0.15755887
177	0xbe395747	-0.180997
178	0xbe60971c	-0.21932644
179	0x3d50caae	0.05097454
180	0x3e17230a	0.1475946
181	0x3cffad17	0.031210465
182	0xbe5e180a	-0.21688858
183	0xbd89cedc	-0.067289084
184	0xbe85a7b1	-0.261045
185	0xbd7c9a82	-0.061670788
186	0xbe565f2a	-0.2093474
187	0xbecf1014	-0.40441954
188	0xbdade783	-0.08491423
189	0xbec35408	-0.38150048
190	0xbe71a415	-0.23597749
191	0xbddc4d16	-0.107568905
192	0xbe7d9e1b	-0.24767344
193	0xbecab912	-0.39594322
194	0xbe0c9dba	-0.13732043
195	0x3dacadff	0.084316246
196	0x3c0224a8	0.00794331
197	0xbe44b7b5	-0.19210704
198	0xbcdbb342	-0.026818875
199	0xbdf5c2ae	-0.12000023
200	0x3e0ed329	0.13947739
201	0xbc085391	-0.008320705
202	0xbe6d8ddf	-0.23198651
203	0xbe55500b	-0.20831315
204	0x3da3125d	0.07962487
205	0xbdf2430e	-0.11829196
206	0xbdddeec4	-0.108365566
207	0x3d2fa766	0.042884253
208	0x3dd714ea	0.10502036
209	0xbb94be28	-0.00453927
210	0x3e0558b2	0.13022116
211	0xbdd71733	-0.10502472
212	0x3db2d0e7	0.08731251
213	0xbe043f98	-0.12914884
214	0xbd9e2a2a	-0.07722886
215	0x3e2a0c66	0.16606292
216	0xbe922d66	-0.2855026
217	0xbe8749d7	-0.26423523
218	0xbebd50a0	-0.36975574
219	0xbda51f1e	-0.08062576
220	0xbe52eec9	-0.20598902
221	0xbea64eaa	-0.3248189
222	0xbd019bcf	-0.03164273
223	0xbe08b79d	-0.13351293
224	0xbecc7f4a	-0.39940864
225	0xbea3b7b9	-0.31976107
226	0xbe09ad29	-0.13444962
227	0xbe8e7023	-0.2781993
228	0x3d4827c6	0.048866056
229	0xbeafbd23	-0.34323987
230	0x3d435963	0.047692668
231	0xbea500eb	-0.32227263
232	0xbdd3e6a5	-0.10346726
233	0xbed62163	-0.41822347
234	0xbed893d9	-0.423003
235	0xbe000f38	-0.12505805
236	0x3e4a36bf	0.19747446
237	0xbdb23ac7	-0.08702617
238	0xbd6de5a5	-0.058080334
239	0xbcbb3d41	-0.022856357
240	0xbe157c1b	-0.14598124
241	0xbeb90e27	-0.3614361
242	0xbe8aebb1	-0.27132943
243	0xbbc5f1ac	-0.0060407724
244	0xbe40f1ee	-0.18842289
245	0xbeabf47e	-0.3358497
246	0xbde1c8f5	-0.11024658
247	0xbdf5c07c	-0.11999604
248	0xbd762cf9	-0.060101483
249	0x3d3cc9d0	0.0460909
250	0x3b95e031	0.004573845
251	0xbe402065	-0.18762358
252	0x3b77df24	0.003782221
253	0xbda4b0a6	-0.080415055
254	0xbe17e1d9	-0.14832248
255	0xbe99b6a5	-0.3002216

linear1.bias f4 [256]
0	0xbd61986f	-0.055077013
1	0xbe6cf53c	-0.23140424
2	0xbd61f9f1	-0.055170003
3	0xbef81e31	-0.48460534
4	0xbe2c8b67	-0.16850053
5	0x3d2c4e30	0.042066753
6	0x3c6a6e9a	0.014308596
7	0xbe9ac67e	-0.30229563
8	0xbecb1a77	-0.3966863
9	0xbe937771	-0.28802064
10	0xbeb872f7	-0.3602521
11	0x3df200df	0.118165724
12	0xbec32985	-0.38117614
13	0xbe80890e	-0.25104564
14	0xbdb6c912	-0.0892507
15	0xbdb33c87	-0.08751779
16	0xbe528cda	-0.20561543
17	0xbf19ffc8	-0.60155916
18	0xbe78d41b	-0.24299662
19	0xbeb03c8b	-0.3442119
20	0xbe185fa7	-0.14880238
21	0xbd5d144b	-0.05397443
22	0xbe82714d	-0.25477067
23	0xbe4fa412	-0.20277432
24	0x3bfa22ea	0.0076335566
25	0xbe2087a2	-0.1567674
26	0xbed56444	-0.4167806
27	0xbe6dc635	-0.23220141
28	0xbe9986b0	-0.2998557
29	0xbe64d8d1	-0.22348334
30	0xbdc5e014	-0.0966188
31	0xbbce0432	-0.006287121
32	0xbf098700	-0.5372162
33	0xbeb4fdf2	-0.35349995
34	0xbe107845	-0.14108379
35	0xbda74ea5	-0.08169297
36	0xbe8757a2	-0.26434046
37	0xbe0f048d	-0.1396658
38	0xbeaaba57	-0.3334529
39	0xbec82f01	-0.3909836
40	0xbe5c270e	-0.21499273
41	0x3d8c8c02	0.06862642
42	0xbef875d6	-0.48527402
43	0xbddd8e5b	-0.10818168
44	0xbeac1836	-0.3361222
45	0xbeaa622f	-0.33278033
46	0xbe693f1b	-0.22777979
47	0xbef8a8d5	-0.4856631
48	0x3e04a122	0.12952092
49	0x3e60fd60	0.21971655
50	0xbe4f5e25	-0.20250757
51	0xbf1900fc	-0.5976713
52	0xbf031c3c	-0.5121496
53	0x3e648490	0.22316194
54	0xbde006fd	-0.10938833
55	0x3e4b1a1c	0.19834179
56	0xbcfc8965	-0.030827234
57	0x3dac7e97	0.084225826
58	0xbedfcfd5	-0.4371325
59	0xbea93a6d	-0.33052388
60	0xbe2a8027	-0.16650449
61	0xbd30bbef	-0.043147977
62	0xbe310667	-0.17287599
63	0x3e111479	0.14167966
64	0xbe3e6289	-0.18592276
65	0xbe93d966	-0.288768
66	0xbe60c85f	-0.21951436
67	0xbdb68ccf	-0.08913576
68	0xbecc8da0	-0.399518
69	0xbed3b294	-0.41347182
70	0xbeb2aaec	-0.34896028
71	0xbe685cee	-0.226917
72	0xbe0ebdb2	-0.1393955
73	0xbe6d8c79	-0.23198117
74	0x3e379854	0.17929202
75	0x3e0121c9	0.12610544
76	0xbe3ca5ed	-0.1842267
77	0xbd311e92	-0.043242045
78	0xbead0c77	-0.33798572
79	0xbf09c1fe	-0.53811634
80	0xbe99e2c4	-0.3005582
81	0xbe1ac63b	-0.15114681
82	0xbedbaab8	-0.42903686
83	0x3cb7859b	0.022402575
84	0xbdee5ffd	-0.11639402
85	0x3e6b4123	0.22974066
86	0xbf027e4b	-0.5097396
87	0x3d527155	0.051377613
88	0xbe88808f	-0.26660582
89	0xbeafe60a	-0.34355193
90	0x3e678adf	0.22611569
91	0xbeb1e349	-0.34743717
92	0xbee766ed	-0.45195714
93	0xbe968bb3	-0.29403457
94	0xbd0916f4	-0.033469155
95	0xbe2fca56	-0.17167029
96	0xbe5e5d40	-0.2171526
97	0xbef2b60c	-0.47404516
98	0xbe194334	-0.14967042
99	0xbe09d9ed	-0.13462038
100	0xbf078bb5	-0.5294755
101	0xbddda324	-0.10822132
102	0xbd8fe151	-0.070253976
103	0xbe942454	-0.28933966
104	0xbe99521a	-0.2994545
105	0xbedf835e	-0.43654913
106	0xbe73becc	-0.23803252
107	0xbe4e4f36	-0.20147404
108	0xbe8fd5cf	-0.2809281
109	0xbde73810	-0.1128999
110	0xbe5ed3e6	-0.2176052
111	0xbee65944	-0.4498998
112	0xbe9f137d	-0.31069556
113	0xbed05632	-0.40690762
114	0xbe7bb9a2	-0.24582532
115	0xbec5c67f	-0.38628003
116	0xbe3b9a1d	-0.18320508
117	0xbe840e5c	-0.25792205
118	0x3de5422d	0.11194263
119	0xbeafcd21	-0.34336188
120	0xbea0e005	-0.31420913
121	0xbe0fa1cd	-0.14026566
122	0xbe11595f	-0.14194249
123	0xbe2acd36	-0.16679844
124	0x3cacd947	0.0210997
125	0xbe4c10b5	-0.19928248
126	0xbe4d6f03	-0.20061879
127	0xbeb23109	-0.34803036
128	0xbe8fe4f9	-0.2810438
129	0xbda86334	-0.082220465
130	0xbebae38a	-0.36501724
131	0xbdc6af9c	-0.097014636
132	0xbe663dcf	-0.22484516
133	0xbdef13bd	-0.11673687
134	0xbed25531	-0.4108062
135	0xbeda9b90	-0.4269681
136	0xbdbf8608	-0.09351736
137	0xbeb851a9	-0.35999802
138	0xbeabb309	-0.3353503
139	0xbcbf4454	-0.023348011
140	0xbe69943b	-0.22810452
141	0x3df5b263	0.11996915
142	0xbeabc0d6	-0.3354556
143	0xbe48bb01	-0.19602586
144	0xbe689466	-0.2271286
145	0xbeb949a4	-0.36188996
146	0xbe795016	-0.24346957
147	0x3ce57c3d	0.028013343
148	0xbbb349fd	-0.0054714666
149	0xbe691fd4	-0.22766048
150	0xbcab598e	-0.020916726
151	0xbe63f56f	-0.22261594
152	0xbece39d9	-0.4027851
153	0xbf064012	-0.52441514
154	0xbf123aa1	-0.5712071
155	0xbe80ac25	-0.25131336
156	0xbe29dc9c	-0.16588062
157	0x3cdd2636	0.02699576
158	0xbe6d4e6b	-0.23174445
159	0x3d850e68	0.064968884
160	0xbe7b06c6	-0.24514303
161	0xbeae5e5e	-0.3405637
162	0xbf1cbb6d	-0.6122349
163	0xbeb066df	-0.34453484
164	0xbdd4b5a0	-0.10386205
165	0xbdaa2a46	-0.08308844
166	0xbd9dc0bf	-0.07702779
167	0xbe9ec271	-0.31007722
168	0xbd07e378	-0.033175915
169	0xbe13c3a8	-0.14430106
170	0xbf0723da	-0.5278908
171	0xbcb64ddd	-0.022253925
172	0xbe4df6e8	-0.20113719
173	0xbe294eb6	-0.16533932
174	0xbebf733a	-0.37392598
175	0xbe9989d4	-0.29987967
176	0xbe60369e	-0.21895835
177	0xbecbdf86	-0.39818972
178	0xbcfc1152	-0.030769978
179	0xbd0a810d	-0.03381448
180	0xbe95057f	-0.29105756
181	0xbecc935b	-0.39956173
182	0x3c866d6e	0.016409602
183	0x3dfaa0ec	0.12237725
184	0xbe968e54	-0.29405463
185	0xbea8e0dd	-0.32984057
186	0xbf01b5b5	-0.5066789
187	0xbd6f918d	-0.058488417
188	0xbe25e153	-0.16199236
189	0xbe2167b0	-0.1576221
190	0xbee7b3d0	-0.45254374
191	0xbe4e7fc9	-0.20165934
192	0xbe5fea40	-0.21866703
193	0xbe82fa63	-0.25581655
194	0xbe9a1492	-0.3009382
195	0xbead329c	-0.33827674
196	0xbee67462	-0.45010668
197	0x3e6394f2	0.22224787
198	0xbf00d912	-0.50331223
199	0x3e38efab	0.18060176
200	0xbe4b30be	-0.19842812
201	0xbeada791	-0.33916906
202	0xbec76090	-0.3894086
203	0xbe4bfb8b	-0.19920175
204	0xbdbfb74c	-0.09361133
205	0xbe9fea3a	-0.31233388
206	0x3d9563d8	0.07294434
207	0xbe22d185	-0.15900238
208	0xbe822209	-0.25416592
209	0xbddb9446	-0.1072164
210	0xbe9f2b4c	-0.3108772
211	0xbedc4b4c	-0.43026197
212	0xbe2deefa	-0.16985694
213	0x3b85d802	0.004084588
214	0xbd98ccef	-0.07460963
215	0xbe5baa03	-0.21451573
216	0xbe753a6c	-0.23948067
217	0xbe15268f	-0.1456549
218	0xbe4a2767	-0.19741593
219	0xbe261d5f	-0.16222142
220	0xbe83c5ba	-0.2573679
221	0xbea7a259	-0.3274105
222	0xbec675fb	-0.38761887
223	0xbe5e0559	-0.21681727
224	0xbdbed23c	-0.09317443
225	0xbd8c5f4e	-0.068541154
226	0x3e0dab17	0.13834797
227	0x3c6f9920	0.01462391
228	0xbe213ba8	-0.15745413
229	0xbe5a82a8	-0.21338904
230	0xbe63d44d	-0.22248955
231	0xbea66cfa	-0.32505018
232	0xbdf02634	-0.11726037
233	0xbe8f416d	-0.27979603
234	0xbe341c7a	-0.17588988
235	0xbeff1eb0	-0.498281
236	0xbd7d482d	-0.06183641
237	0xbe529113	-0.20563154
238	0xbe2fcb00	-0.17167282
239	0xbe2d46a1	-0.16921474
240	0x3e929e65	0.2863647
241	0xbe7154c9	-0.23567499
242	0xbe85da5d	-0.2614316
243	0xbec0d309	-0.37661007
244	0xbeb98235	-0.36232153
245	0x3db89c20	0.090141535
246	0xbefcc419	-0.4936836
247	0xbecbc891	-0.39801458
248	0xbee4cd69	-0.44687966
249	0x3e2ce4c6	0.16884145
250	0x3e537b04	0.20652395
251	0xbd7e89b0	-0.062143028
252	0xbed1d8d7	-0.40985748
253	0xbe407aa1	-0.18796779
254	0xbeb45ef6	-0.352287
255	0xbe735b4d	-0.23765297

linear2.weight f4 [256, 256]
0	0xbbd50483	-0.006500782
1	0x3cb5eb86	0.022207033
2	0xbcaf53b2	-0.021402214
3	0x3a3b1f90	0.0007138187
4	0xbd5a724c	-0.05333166
5	0x3d85e4c3	0.065377735
6	0x3d2606d2	0.040533848
7	0x3d9e5b9b	0.07732316
8	0x3d19f96d	0.037591387
9	0xbd759730	-0.059958637
10	0xbdc82bd4	-0.097739846
11	0x3ba74b2a	0.005105396
12	0x3bbb0766	0.005707669
13	0x3cba4d11	0.022741826
14	0xbbce3e35	-0.0062940367
15	0x3d0146b4	0.03156157
16	0xbc2d6fc2	-0.010585727
17	0xbd0330e0	-0.032029033
18	0xbc164f35	-0.009174158
19	0xbce62ec5	-0.028098473
20	0xbcfd26e2	-0.03090233
21	0xbd388dcc	-0.045057103
22	0xbcaf9feb	-0.02143856
23	0xbd516bba	-0.051128127
24	0xbd03c3f2	-0.03216929
25	0xbc8066d3	-0.01567403
26	0x3c8d6a42	0.017262582
27	0xbcdb80ff	-0.026794909
28	0xbdac6d02	-0.08419229
29	0x3d2bd9b3	0.04195566
30	0xbcca615a	-0.024704624
31	0x3cce4381	0.025178673
32	0x3c8de7d2	0.017322455
33	0xbd5d8a2d	-0.054086853
34	0xbdafb774	-0.08579913
35	0x3c8e398e	0.017361429
36	0xbc6633dd	-0.014050451
37	0x3c7a63c0	0.015282571
38	0x3c81fa0b	0.0158663
39	0xbd579664	-0.052633658
40	0xbd2675ec	-0.040639803
41	0xbce199ac	-0.027539097
42	0xbc0229ec	-0.007944565
43	0xbd42b8e3	-0.047539603
44	0xbd025e88	-0.031828433
45	0xbc3f00d8	-0.011657916
46	0xbc81fd02	-0.015867714
47	0x3d00fe70	0.03149265
48	0xbdad5443	-0.08463337
49	0xbdca00c6	-0.09863429
50	0x3c0d6762	0.008630605
51	0xbd9991ab	-0.07498487
52	0xbc5aac7c	-0.013346788
53	0xbd4e2ca6	-0.05033555
54	0xbd41d053	-0.047317814
55	0xbcc302bc	-0.023805015
56	0x3ce69342	0.02814639
57	0xbdac4ba4	-0.08412865
58	0xbd3812c0	-0.044939756
59	0xbd269896	-0.04067286
60	0x3c902328	0.017594889
61	0xbc2669a6	-0.0101570245
62	0x3d4f6a87	0.0506387
63	0xbafceeec	-0.0019297278
64	0xbd77aae8	-0.060465723
65	0xbcfcc0da	-0.030853678
66	0x3c9957bc	0.018718593
67	0xbd18708b	-0.037216704
68	0x3c6f1b77	0.0145939505
69	0xbdd3dd46	-0.10344939
70	0xbd8b9aca	-0.06816633
71	0xbd860cd0	-0.065454125
72	0x3cada3bb	0.021196237
73	0xbd4deb52	-0.050273247
74	0xbd939225	-0.07205609
75	0xbcc5fe79	-0.024169194
76	0xbb6e290c	-0.0036340384
77	0xbd280955	-0.041024525
78	0xbcd3f614	-0.025874175
79	0xbd2420ab	-0.040070217
80	0xbc8ef43f	-0.01745045
81	0xbd38eb19	-0.04514608
82	0xbc92fe17	-0.017943425
83	0x3d209eff	0.03921413
84	0xbc4602d6	-0.012085637
85	0xbd4d8d93	-0.050183844
86	0xbdb2294d	-0.08699284
87	0x3ce61e7c	0.028090708
88	0x3d01e964	0.03171672
89	0xbc1b43c4	-0.009476606
90	0xbd87077c	-0.065932244
91	0xbd3b410c	-0.04571633
92	0xbd876b8c	-0.0661231
93	0x3cd35e80	0.025801897
94	0xbd221364	-0.039569274
95	0xbba7c1e7	-0.0051195505
96	0xbd0c26e2	-0.03421677
97	0xbc312738	-0.010812573
98	0xbcfa9cd8	-0.030592367
99	0xbbda29c5	-0.0066578113
100	0xbc765983	-0.01503599
101	0xbd447ab4	-0.04796858
102	0xbda558a6	-0.08073549
103	0x3c0e5928	0.008688249
104	0xbcc29d55	-0.023756662
105	0xbd6709a7	-0.05640569
106	0x3c01502d	0.007892651
107	0xbd823e16	-0.06359498
108	0x3d1d5207	0.038408305
109	0x3c88c803	0.016696936
110	0x3b774286	0.003772886
111	0x3d356784	0.044288173
112	0xbce00077	-0.027343972
113	0x3d49080c	0.04907994
114	0xbd56e3cb	-0.052463334
115	0x3b24f318	0.002516931
116	0x3c2690b8	0.01016634
117	0xbd2d14a8	-0.042256027
118	0x3cefcc18	0.029272124
119	0xbd7fed20	-0.062482
120	0xbcb2cbad	-0.021825636
121	0xbbf46dc9	-0.0074593765
122	0x3d1559f1	0.036462728
123	0x3cb4b111	0.022057088
124	0xbca6fcc5	-0.020384202
125	0xbc435c55	-0.011923869
126	0xbcb98f25	-0.022651264
127	0x3c7a4235	0.015274574
128	0x3b946cbf	0.004529565
129	0xbd3ed79f	-0.04659235
130	0xbd552042	-0.052032717
131	0xbd5adb34	-0.053431705
132	0xbd67c90b	-0.056588214
133	0xbd6341f0	-0.055482805
134	0xbce500cd	-0.027954483
135	0xbc8eeb7f	-0.017446278
136	0xbd6e4d98	-0.058179468
137	0xbda7fa51	-0.08202041
138	0xbc8dd498	-0.017313287
139	0xbd45ccaf	-0.048290905
140	0xbd810adc	-0.063008994
141	0x3d8b9a27	0.068165116
142	0xbcffb2cb	-0.031213185
143	0x3d6f4c02	0.058422096
144	0xbd5dd39e	-0.054156892
145	0xbd312192	-0.043244906
146	0x3c113ae6	0.00886414
147	0xbda9d0aa	-0.08291753
148	0x3d121b3a	0.035670497
149	0x3cbb311d	0.022850567
150	0xbd91f3df	-0.07126593
151	0x3c1bc7f2	0.00950812
152	0xbbc2c71a	-0.005944145
153	0xbc85b9a0	-0.016323864
154	0x3ca9ed46	0.020743024
155	0x3be3a88c	0.0069475826
156	0xbd4e1cc1	-0.05032039
157	0xbd03d36f	-0.03218406
158	0x3a188c6d	0.0005819265
159	0x3c7e4680	0.015519738
160	0xbc00d0f6	-0.00786232
161	0x3c64c4f7	0.013962976
162	0xbcce281b	-0.025165608
163	0xbb3349ea	-0.0027357289
164	0xbb363d60	-0.0027807578
165	0xbd756fff	-0.05992126
166	0x3a8a98e6	0.0010574132
167	0xbda6ae5a	-0.08138724
168	0xbd031cf3	-0.03201003
169	0xba4c6123	-0.0007796457
170	0xbda051d7	-0.0782811
171	0xbde6fa7b	-0.11278244
172	0xbd3ca20c	-0.046052977
173	0x3cd79b12	0.02631906
174	0x3c5f3724	0.013623986
175	0xbd8002c3	-0.06250527
176	0x3d148c6d	0.036266733
177	0xbd173cd8	-0.03692326
178	0x3d5c9a77	0.053858247
179	0xbd9bd127	-0.07608252
180	0xbcf4f257	-0.029900713
181	0x3cf01879	0.029308544
182	0x3bdaf39f	0.006681874
183	0xbd53c01e	-0.05169689
184	0xbb5b5caf	-0.0033471992
185	0x3c0d3e20	0.008620769
186	0xbd4f6ab8	-0.050638884
187	0xbd7f4e23	-0.062330376
188	0xbd007a9d	-0.031366933
189	0xbd7e001d	-0.062011827
190	0x3cce4258	0.02517812
191	0x3c9a1085	0.018806705
192	0xbdbcb2ff	-0.09213828
193	0xbd39be43	-0.045347463
194	0xbdc02d1c	-0.09383604
195	0x3c781ebc	0.015144046
196	0xbd90ccc2	-0.070703045
197	0xbdf1364c	-0.117779344
198	0xbc26008b	-0.010131965
199	0x3c0c9741	0.008580984
200	0xbd4da819	-0.05020914
201	0x3cf56b08	0.029958263
202	0xbd4654d9	-0.04842076
203	0xbd58007b	-0.052734833
204	0xbd1df461	-0.038563136
205	0xbc96ac23	-0.018392628
206	0xbceb73c8	-0.028741732
207	0x3cf6852e	0.030092802
208	0x3d2019ed	0.039087225
209	0x3c06a345	0.008217637
210	0x3ccd8d8d	0.02509191
211	0x3be79488	0.007067267
212	0xbc3acaf1	-0.011400924
213	0x3d8e6111	0.06952108
214	0xbd9b8f3d	-0.0759568
215	0xbdd5c216	-0.104374096
216	0xbc877e65	-0.016539762
217	0xbcb58146	-0.022156369
218	0xbd63f1b1	-0.055650417
219	0xbcdf2a85	-0.027241955
220	0xbd8e0706	-0.06934933
221	0x3c18b2e3	0.009319994
222	0xbd4020f7	-0.046906438
223	0xbdbe2943	-0.09285214
224	0xbd172d46	-0.03690841
225	0x3a1de949	0.0006023837
226	0x3b031011	0.001999859
227	0xbd095a79	-0.033533547
228	0x3d33a5e1	0.043859366
229	0xbd38747d	-0.045032967
230	0xbcba84d0	-0.022768408
231	0x3bee2db9	0.007268634
232	0x3bc8e329	0.006130595
233	0xbb836406	-0.0040097265
234	0xbcf71dbe	-0.03016555
235	0x3cf8c6ba	0.030368198
236	0x3d99b507	0.07505231
237	0xbb91dcab	-0.0044513545
238	0x3d5d332a	0.054003872
239	0xbd737431	-0.05943698
240	0x3cadf643	0.02123559
241	0xbc4af582	-0.012387635
242	0xbda6f567	-0.081522755
243	0xbd0b61a9	-0.034028683
244	0xbd32d9e2	-0.04366482
245	0xbdcec4e6	-0.10096149
246	0xbae8db1a	-0.0017765493
247	0x3d4e8b04	0.050425544
248	0x3d1b3244	0.037889734
249	0x3d660c25	0.056163926
250	0xbd996cd9	-0.07491464
251	0xbd50d3a9	-0.050983105
252	0xbc133c82	-0.008986594
253	0x3b890f3b	0.004182724
254	0x3ce652e0	0.02811569
255	0x3c4c39d1	0.012464956

linear2.bias f4 [256]
0	0xbda3d89b	-0.080002986
1	0xbc1aaef7	-0.009441129
2	0xbddabf32	-0.10680999
3	0xbcd93f34	-0.026519395
4	0xbe16f8c8	-0.1474334
5	0x3ddd8f55	0.10818354
6	0xbcd5aea0	-0.026084244
7	0xbc8d96c0	-0.017283797
8	0xbe11044f	-0.141618
9	0xbda675c1	-0.081279285
10	0x3b304243	0.0026894964
11	0xbd678dbb	-0.05653165
12	0x3c19a286	0.0093771275
13	0xbd9c3e8c	-0.07629117
14	0xbd65c2a5	-0.05609383
15	0xbd5ed6ef	-0.054404195
16	0x3da454e0	0.08024001
17	0xbd0e688a	-0.034767665
18	0xbda048c0	-0.07826376
19	0xbda172a0	-0.07883191
20	0xbd92c744	-0.07166913
21	0xbe0be34a	-0.13660923
22	0xbbe3f0e8	-0.0069562085
23	0xbcd65fbb	-0.026168695
24	0x3cb11d60	0.021620452
25	0xbb2c2370	-0.002626624
26	0xbd02bf23	-0.031920563
27	0xbc6b9827	-0.014379538
28	0xbc481d8d	-0.012214077
29	0xbd2c6150	-0.042084992
30	0xbd050064	-0.032471076
31	0x3e14cc4f	0.14531063
32	0xbda6a8b4	-0.08137646
33	0xbdaf0aa1	-0.08546949
34	0xbda410c2	-0.08011009
35	0xbdb7af36	-0.08968966
36	0xbcef1b91	-0.02918795
37	0xbdb72d2c	-0.08944163
38	0xbd72b96c	-0.059258863
39	0xbc92dab7	-0.017926557
40	0xbd327980	-0.043572903
41	0x3ba643bf	0.005073994
42	0x3b25bf86	0.0025291159
43	0xbd37a15a	-0.04483161
44	0xbcdb91b0	-0.026802868
45	0xbdb56169	-0.0885647
46	0x3d39b403	0.04533769
47	0xbd632472	-0.05545468
48	0xbd57f87b	-0.052727204
49	0x3da6dbc8	0.08147389
50	0xbd817783	-0.06321623
51	0x3f000822	0.5001241
52	0xbc774c28	-0.015093841
53	0xb98d31af	-0.00026930633
54	0xbdc04f60	-0.093901396
55	0xbdb993c6	-0.09061389
56	0xbe45ce4d	-0.19316979
57	0xbdace16f	-0.084414355
58	0x3d30c2cc	0.043154523
59	0x3e711388	0.23542607
60	0xbdb8e545	-0.09028105
61	0xbc121cfe	-0.008918045
62	0xbda70256	-0.081547424
63	0x3d82e67b	0.06391617
64	0xbbf28289	-0.007400815
65	0xbcb3997a	-0.02192377
66	0xbda941c7	-0.08264499
67	0x3d97fd63	0.074213766
68	0xbcf1e074	-0.029525973
69	0xbd8aa254	-0.06769243
70	0x3d721c3b	0.059108954
71	0xbd623c54	-0.055233315
72	0xbdb01761	-0.08598209
73	0xbe1d92ac	-0.15387982
74	0xbdac065b	-0.0839965
75	0xbcfc4e4f	-0.03079906
76	0xbe3330b2	-0.17499045
77	0xbd98844b	-0.07447108
78	0xbdcec75d	-0.10096619
79	0xbd35a42b	-0.044346016
80	0xbd9e6c6e	-0.07735525
81	0x3e9b4cb4	0.30331957
82	0x3ad0ab18	0.001592013
83	0xbc896423	-0.016771382
84	0xbdcfdef7	-0.10149949
85	0xbd2b41fd	-0.04181098
86	0x3e4c3e4b	0.19945638
87	0xbe0f8666	-0.14016113
88	0x3dc8a80b	0.09797677
89	0xbca31fdc	-0.019912653
90	0xbdbe3420	-0.09287286
91	0xbc00fc47	-0.007872648
92	0x3c09df9a	0.008415127
93	0xbdf41e0e	-0.11919795
94	0xbd83fe2a	-0.06444962
95	0xbcd4c187	-0.025971187
96	0xbd2e4591	-0.042546812
97	0x3c8c88b6	0.017155033
98	0xbdd927c2	-0.10603286
99	0x3d163ce5	0.036679167
100	0x3e4c826c	0.19971627
101	0x3d8c9c4d	0.068657495
102	0xbb56ae30	-0.0032757632
103	0xbd276d8e	-0.040875964
104	0xbdbf7e69	-0.09350283
105	0xbd0f57ba	-0.034995772
106	0xbd68d494	-0.056843355
107	0xbde8c052	-0.11364807
108	0x3d0836c7	0.033255365
109	0xbd669b51	-0.056300465
110	0x3e5cb30a	0.21552673
111	0xbcfdd221	-0.030983986
112	0xbc31dd78	-0.010856025
113	0xbe023b10	-0.12717843
114	0xbd8d13ab	-0.06888517
115	0xbdd34d2d	-0.103174545
116	0xbd08120c	-0.033220336
117	0xbd9635ea	-0.07334502
118	0xbddf1857	-0.10893314
119	0xbadcf21a	-0.001685682
120	0xbbb961c2	-0.0056574056
121	0x3ad624da	0.0016337887
122	0x3e472cae	0.19450638
123	0xbd7e1d99	-0.062039945
124	0xbd90b786	-0.07066254
125	0x3bcf2b7c	0.0063223224
126	0x3e3a5be3	0.18199115
127	0xbdabf018	-0.083954036
128	0xbd57f98a	-0.052728213
129	0xbd419f75	-0.04727121
130	0x3e15cfdf	0.14630078
131	0xbca683fc	-0.020326607
132	0x3dd561c3	0.10419037
133	0xbd9d4ee6	-0.07681064
134	0xbc9a7a03	-0.018857008
135	0xbd8d36e0	-0.06895232
136	0x3c93aaee	0.018025842
137	0xbc8102ef	-0.01574847
138	0xbd5967aa	-0.053077377
139	0xbdae3c06	-0.08507542
140	0xbd8e24f9	-0.06940646
141	0x3cd58d18	0.026068255
142	0xbd99cb60	-0.07509494
143	0xbdcb956d	-0.0994061
144	0x3beeb99d	0.0072853104
145	0x3c3123f2	0.010811793
146	0xbdd14ca9	-0.102197
147	0xbe07ed73	-0.13274173
148	0xbd74f403	-0.05980302
149	0xbe2e547a	-0.17024413
150	0x3ec0f366	0.37685698
151	0xbdaaeb7b	-0.083456956
152	0xbdc8dfe4	-0.09808329
153	0x3b01fcb7	0.0019834468
154	0xbda6bdcf	-0.08141672
155	0xbd4227b6	-0.047401153
156	0xbd84ca83	-0.064839385
157	0x3e2c5a07	0.16831218
158	0xbdb9712f	-0.09054791
159	0xbca4d198	-0.020119473
160	0xbcc13502	-0.023584846
161	0xbd34462b	-0.04401223
162	0x3d53c9a9	0.05170599
163	0xbc528b97	-0.012850664
164	0xbc7fc26d	-0.01561032
165	0xbdcf941b	-0.10135671
166	0xbd7db15f	-0.061936732
167	0xbd98e249	-0.074650355
168	0xbd16fea6	-0.036863945
169	0xbdfd8d8d	-0.12380514
170	0xbba45872	-0.0050154263
171	0x3d9d8174	0.07690707
172	0xbdafcb56	-0.08583705
173	0xbd369d82	-0.044583805
174	0xbd071b7d	-0.0329852
175	0xbd1d6cd9	-0.038433883
176	0xbd9a6625	-0.07539014
177	0x3d198c2d	0.037487198
178	0xbd79c7b3	-0.060981464
179	0xbe04cb64	-0.12968212
180	0xbdd0efcd	-0.10201988
181	0xbcc13826	-0.023586344
182	0x3d323a2c	0.04351251
183	0xbb81e374	-0.003963882
184	0x3e0d3bf8	0.13792408
185	0xbd7d2e53	-0.061811756
186	0x3c7a1db2	0.015265869
187	0xbc6e6b36	-0.014551928
188	0xbc1d6e29	-0.009608784
189	0xbdd86776	-0.105666086
190	0x3d3a6807	0.045509364
191	0xbd4845e6	-0.048894785
192	0x3d805e6f	0.06268012
193	0xbde1edc4	-0.11031678
194	0xbcdc2b99	-0.026876258
195	0xbb90db13	-0.004420647
196	0xbc4e867d	-0.012605307
197	0xbd9fb508	-0.07798201
198	0xbd86b051	-0.065765984
199	0xbbab79b5	-0.0052330145
200	0x3d812b25	0.06307057
201	0xbdedde04	-0.11614612
202	0xbd0697d1	-0.032859627
203	0xbd4271e5	-0.0474719
204	0xbd321791	-0.043479506
205	0xbd452c19	-0.048137758
206	0x3bc9f364	0.0061630476
207	0xbc9ef778	-0.019405112
208	0xbd840c33	-0.06447639
209	0xbd2d0ad5	-0.04224666
210	0x3d20b6e2	0.03923691
211	0xbd64eaae	-0.05588787
212	0xbd9258ac	-0.07145819
213	0xbdc71e59	-0.09722585
214	0xbdb6b6a9	-0.089215584
215	0xbd91649d	-0.070992686
216	0xbc320916	-0.010866424
217	0xbd2780bf	-0.040894266
218	0xbd675b84	-0.05648376
219	0xbd4b6a04	-0.04966165
220	0xbd2055ed	-0.039144445
221	0xbcd550a6	-0.026039433
222	0xbe1a00e0	-0.15039396
223	0xbd2139c6	-0.039361738
224	0x3e5296d9	0.20565356
225	0x3e2c9fba	0.16857806
226	0xbda707a6	-0.08155756
227	0xbda56ce6	-0.08077411
228	0xbd8ee145	-0.069765605
229	0xbd87f242	-0.06638004
230	0xbc39c82c	-0.011339229
231	0x3d7b2811	0.061317507
232	0xbdd6d1a3	-0.10489204
233	0xbd87956b	-0.06620296
234	0x3e35941d	0.17732282
235	0xbc64da83	-0.013968113
236	0xbdd57362	-0.10422398
237	0xbda77ef7	-0.081785135
238	0xbd7c996b	-0.06166975
239	0xbd022378	-0.031772107
240	0xba1761d5	-0.0005774771
241	0xbd48fa74	-0.049066976
242	0xbd5b80f9	-0.053589795
243	0xbdd295cd	-0.102824785
244	0xbd0ea6c1	-0.034826998
245	0xbd1e8649	-0.038702283
246	0x3d585200	0.052812576
247	0xbd04ff07	-0.032469776
248	0x3de5a803	0.11213686
249	0xbd2b95c8	-0.04189089
250	0xbcec9530	-0.028879732
251	0xbdb067bb	-0.08613535
252	0xbdfc4d9b	-0.123194896
253	0xbd69fb89	-0.05712465
254	0x3e589603	0.21150975
255	0xbd45f92f	-0.048333343

linear3.weight f4 [4, 256]
0	0xbd24a6fc	-0.04019831
1	0xbd05f75b	-0.0327066
2	0xbc81f43c	-0.01586353
3	0x3c4777ed	0.012174589
4	0x3b970f95	0.004610012
5	0x3db63a82	0.08897878
6	0xbc8d5714	-0.017253436
7	0x3bb3368e	0.00546915
8	0x3db48550	0.0881449
9	0x3bd778fe	0.0065757027
10	0x3cd3ff99	0.025878714
11	0xbc5ca990	-0.013468161
12	0x3c8c99ef	0.017163245
13	0x3d8875cf	0.06663095
14	0xbd08b096	-0.03337153
15	0x3c2fc546	0.010728186
16	0xbd134393	-0.035953116
17	0x3ad65ba7	0.0016354219
18	0x3c9a9f7a	0.018874872
19	0x3b875388	0.0041298307
20	0x3ba95d20	0.005168572
21	0x3bd51f92	0.0065040076
22	0xbd57454a	-0.052556314
23	0xbd1dde49	-0.038542066
24	0xbbaf7391	-0.0053543528
25	0xbdb2941d	-0.087196566
26	0x3cf7f778	0.03026937
27	0x3cf6bf27	0.030120445
28	0xbcec5296	-0.028847974
29	0x3c210fa1	0.009830386
30	0xbc4331eb	-0.011913757
31	0xbc959701	-0.01826048
32	0x3d98c4b1	0.07459391
33	0xba3d2676	-0.0007215509
34	0x3cd21a89	0.025647419
35	0xbc50b302	-0.012737991
36	0x3c727e2c	0.0148005895
37	0x3c5df382	0.013546826
38	0x3cf7327d	0.030175442
39	0xbcf5e328	-0.030015543
40	0xbb306a32	-0.0026918766
41	0xbcfdca2b	-0.03098019
42	0xbbcfcd91	-0.006341644
43	0xbd8550a8	-0.065095246
44	0x3d18fc07	0.037349727
45	0xbdeba132	-0.11505355
46	0xbc864216	-0.016388934
47	0x3d8210a3	0.063508295
48	0xbd893c3e	-0.067009434
49	0x3d1ed484	0.03877689
50	0x3b4cd16a	0.003125275
51	0xbdbe868e	-0.09303008
52	0xbaee2b23	-0.0018170815
53	0xbc0bb144	-0.00852615
54	0xbd62d255	-0.05537637
55	0xbd2dcd48	-0.0424321
56	0x3d288536	0.041142665
57	0x3d40c2fa	0.047060944
58	0xbd74f44a	-0.059803285
59	0xbce15d9c	-0.027510457
60	0xbc7bcca2	-0.0153686125
61	0xbad0ad61	-0.0015920812
62	0x3cf78120	0.030212939
63	0x3d176f5e	0.036971442
64	0xbb59cdbd	-0.0033234202
65	0x3c21c5b6	0.009873798
66	0xbcaf3ae0	-0.021390378
67	0xbd09e0e8	-0.033661753
68	0xbceb96c9	-0.028758423
69	0xbd8f54f9	-0.06998629
70	0xbc236c95	-0.009974618
71	0xbba52e4c	-0.0050409194
72	0xbd00612c	-0.03134267
73	0xbd03599b	-0.032067876
74	0x3d403e54	0.04693444
75	0xbb32fcc6	-0.002731131
76	0x3cb3660a	0.021899242
77	0xbd712cf5	-0.058880765
78	0x3bb97594	0.0056597684
79	0xbc436ddc	-0.011928048
80	0xbc80a445	-0.01570333
81	0x3d1f4206	0.038881324
82	0x3c37779b	0.01119795
83	0x3cec592a	0.02885111
84	0xbbb2eb0c	-0.0054601487
85	0x3cdde0cd	0.027084732
86	0x3cbc4186	0.022980463
87	0x3bc00ac1	0.005860657
88	0xbddd4e1e	-0.10805915
89	0xbd4f2b3a	-0.050578333
90	0x3c222291	0.009895937
91	0x3d08a9a4	0.033364907
92	0xbd2db1df	-0.04240596
93	0x3c7e6af8	0.015528433
94	0xbc6f880a	-0.014619837
95	0x3c39e6ee	0.011346562
96	0xbce83f74	-0.02835057
97	0xbcf0a03e	-0.029373284
98	0x3ca5e0b4	0.020248748
99	0xbd646240	-0.05575776
100	0xbd28cf1b	-0.041213136
101	0xbd842341	-0.06452037
102	0x3ce3b290	0.027795106
103	0x3c81a46f	0.015825478
104	0x3cd4898a	0.02594449
105	0xbc8fe79d	-0.017566497
106	0x3d3dd535	0.04634591
107	0x3d183040	0.03715539
108	0x3ba3033a	0.00497475
109	0x3cec0bf9	0.028814303
110	0xbcd90498	-0.026491448
111	0xbd2f1bee	-0.042751245
112	0x3b6125e8	0.003435487
113	0x3bee4e67	0.00727253
114	0xbcec2464	-0.028825946
115	0xbcb93942	-0.02261031
116	0x3cc522e0	0.024064481
117	0xbd3625dd	-0.044469703
118	0xbd78721c	-0.0606557
119	0xbd805820	-0.062668085
120	0x3c7a820c	0.015289795
121	0x3d5948be	0.053047888
122	0x3d4f7e8c	0.050657794
123	0xbd4b1717	-0.049582567
124	0x3c9e0f41	0.019294383
125	0x3ba4ea13	0.0050327866
126	0x3d19a2b5	0.037508685
127	0x3c070e29	0.008243122
128	0xbcb5687e	-0.022144552
129	0x3c328a58	0.0108972415
130	0xbb4caa6e	-0.0031229514
131	0xbafe2f61	-0.0019392782
132	0xbcab62bb	-0.020921102
133	0xbd0434f2	-0.032277055
134	0xbcf7c171	-0.030243607
135	0x3c74fda8	0.0149530545
136	0xbc91c17b	-0.017792454
137	0xbb10c3d0	-0.002208937
138	0xbc82cc67	-0.015966607
139	0xbcb26304	-0.02177573
140	0x3cd29f5e	0.025710758
141	0xbd9d986a	-0.07695086
142	0xbcbc389a	-0.022976208
143	0xbc4c6f65	-0.01247773
144	0xbab00a77	-0.0013430853
145	0x3c40faa8	0.011778511
146	0x3c49f4cb	0.01232643
147	0xbb2ab0f6	-0.0026045418
148	0x3d29b178	0.041429013
149	0xbba584a5	-0.005051213
150	0xbdab502b	-0.083649
151	0xbd0af14d	-0.03392153
152	0x3a90849b	0.0011025848
153	0x3a67af5a	0.000883808
154	0x3ccd5de4	0.025069185
155	0xbb1184bd	-0.0022204362
156	0x3b3c0520	0.0028689578
157	0xbcf1c142	-0.029511098
158	0xbd35bc8e	-0.044369273
159	0xbd29f31c	-0.041491613
160	0x3c1a1ec1	0.009406746
161	0xbc7cd5f8	-0.0154318735
162	0xbbe7b438	-0.0070710443
163	0xbd104d74	-0.035230115
164	0x3b427c36	0.0029676086
165	0xbc2e2977	-0.010630003
166	0x3cc15a32	0.023602579
167	0xbc4b193e	-0.012396155
168	0xbc863cfb	-0.0163865
169	0x3c8656bb	0.016398778
170	0x3d989a71	0.07451332
171	0xbcd3e81e	-0.025867518
172	0x3d44fbc6	0.048091672
173	0x3cabc378	0.02096723
174	0xbcea6138	-0.02861081
175	0xbb82975d	-0.003985329
176	0xbc9cdd0e	-0.019148376
177	0x3c47d3bc	0.0121964775
178	0x3d189a79	0.03725669
179	0xbd1907ca	-0.037360944
180	0xbc8638e0	-0.016384542
181	0xbb365fd5	-0.0027828116
182	0xbd0efdf9	-0.034910176
183	0xbd131f13	-0.035918307
184	0xbd06d0b4	-0.03291388
185	0x3c11023e	0.008850632
186	0x3c9eacb2	0.019369457
187	0xbc00249c	-0.007821228
188	0xbd892d5f	-0.06698107
189	0x3ccf8f74	0.025336958
190	0xbca576ed	-0.02019831
191	0x3c288be7	0.010287262
192	0xbd7489d7	-0.059701767
193	0x3c80d4aa	0.015726406
194	0x3cfd6e95	0.030936519
195	0xbcbe9420	-0.02326399
196	0xbc4a595c	-0.0123504065
197	0xbc8a243d	-0.016862983
198	0x3c8d7479	0.017267453
199	0xbc2ad136	-0.010425856
200	0xbd84b5ef	-0.064800136
201	0x3c9e8ba3	0.019353693
202	0x3bd5c87f	0.006524145
203	0x3c26f44c	0.010190081
204	0x3c905ce5	0.01762242
205	0x3d1c3cd5	0.03814395
206	0x3ce0f9cb	0.02746286
207	0xbd226247	-0.039644506
208	0xbc41d43c	-0.011830386
209	0x3c8900f8	0.016724095
210	0xbc47ecb1	-0.012202428
211	0x3d068309	0.03283981
212	0x3c20a6ea	0.00980542
213	0x3d0defb0	0.034652412
214	0x3da5f548	0.08103424
215	0xbcd8404e	-0.02639785
216	0xbc5d10a2	-0.013492735
217	0x3c45eada	0.012079919
218	0x3d1f029e	0.038820855
219	0x3cb9829a	0.022645283
220	0x3c970e92	0.018439565
221	0xbcd21741	-0.025645854
222	0x3c7204d7	0.014771662
223	0x3cab2a2b	0.02089413
224	0xbd5cf8db	-0.053948265
225	0xbd907501	-0.07053567
226	0x3bad8e0f	0.0052964757
227	0xbb08a799	-0.002085185
228	0x3c1e2686	0.009652739
229	0xbd0fdea7	-0.035124447
230	0x3aa6b123	0.0012717586
231	0x3b49ce96	0.00307933
232	0xbc845ccf	-0.016157536
233	0xbcbccdea	-0.023047406
234	0xbbf073ed	-0.007338038
235	0x3c480d14	0.012210149
236	0x3c8f7b0b	0.017514726
237	0x3d22f81a	0.03978739
238	0x3ccba70c	0.024859928
239	0x3d2b6624	0.041845456
240	0xbd00d723	-0.03145517
241	0x3c5d768d	0.013517034
242	0xbaf124f9	-0.001839786
243	0xbc88c484	-0.016695268
244	0x3d368fe9	0.044570837
245	0xbcc33199	-0.023827361
246	0xbd62fbf6	-0.05541607
247	0xbc5157e0	-0.012777299
248	0x3ca02f6c	0.019553863
249	0x3bba7f15	0.005691419
250	0x3d19cfa0	0.037551522
251	0xbd86e063	-0.06585767
252	0x3c8c5b33	0.01713333
253	0x3cd6331d	0.02614742
254	0x3d80ad37	0.06283038
255	0xbd5f4b43	-0.054515135

linear3.bias f4 [4]
0	0xbe34330d	-0.175976
1	0xbed9e671	-0.42558625
2	0xbed4b10e	-0.41541332
3	0xbeddf0e0	-0.43347836
